node {
  name: "global_step/Initializer/zeros"
  op: "Const"
  attr {
    key: "_class"
    value {
      list {
        s: "loc:@global_step"
      }
    }
  }
  attr {
    key: "_output_shapes"
    value {
      list {
        shape {
        }
      }
    }
  }
  attr {
    key: "dtype"
    value {
      type: DT_INT64
    }
  }
  attr {
    key: "value"
    value {
      tensor {
        dtype: DT_INT64
        tensor_shape {
        }
        int64_val: 0
      }
    }
  }
}
node {
  name: "global_step"
  op: "VariableV2"
  attr {
    key: "_class"
    value {
      list {
        s: "loc:@global_step"
      }
    }
  }
  attr {
    key: "_output_shapes"
    value {
      list {
        shape {
        }
      }
    }
  }
  attr {
    key: "container"
    value {
      s: ""
    }
  }
  attr {
    key: "dtype"
    value {
      type: DT_INT64
    }
  }
  attr {
    key: "shape"
    value {
      shape {
      }
    }
  }
  attr {
    key: "shared_name"
    value {
      s: ""
    }
  }
}
node {
  name: "global_step/Assign"
  op: "Assign"
  input: "global_step"
  input: "global_step/Initializer/zeros"
  attr {
    key: "T"
    value {
      type: DT_INT64
    }
  }
  attr {
    key: "_class"
    value {
      list {
        s: "loc:@global_step"
      }
    }
  }
  attr {
    key: "_output_shapes"
    value {
      list {
        shape {
        }
      }
    }
  }
  attr {
    key: "use_locking"
    value {
      b: true
    }
  }
  attr {
    key: "validate_shape"
    value {
      b: true
    }
  }
}
node {
  name: "global_step/read"
  op: "Identity"
  input: "global_step"
  attr {
    key: "T"
    value {
      type: DT_INT64
    }
  }
  attr {
    key: "_class"
    value {
      list {
        s: "loc:@global_step"
      }
    }
  }
  attr {
    key: "_output_shapes"
    value {
      list {
        shape {
        }
      }
    }
  }
}
node {
  name: "train_input_fn/parallel_read/filenames/Const"
  op: "Const"
  attr {
    key: "_output_shapes"
    value {
      list {
        shape {
          dim {
            size: 1
          }
        }
      }
    }
  }
  attr {
    key: "dtype"
    value {
      type: DT_STRING
    }
  }
  attr {
    key: "value"
    value {
      tensor {
        dtype: DT_STRING
        tensor_shape {
          dim {
            size: 1
          }
        }
        string_val: "/scratch/mtufano/seq2seq/dataset/50len_ident_lit//train/after.txt"
      }
    }
  }
}
node {
  name: "train_input_fn/parallel_read/filenames/Size"
  op: "Const"
  attr {
    key: "_output_shapes"
    value {
      list {
        shape {
        }
      }
    }
  }
  attr {
    key: "dtype"
    value {
      type: DT_INT32
    }
  }
  attr {
    key: "value"
    value {
      tensor {
        dtype: DT_INT32
        tensor_shape {
        }
        int_val: 1
      }
    }
  }
}
node {
  name: "train_input_fn/parallel_read/filenames/Greater/y"
  op: "Const"
  attr {
    key: "_output_shapes"
    value {
      list {
        shape {
        }
      }
    }
  }
  attr {
    key: "dtype"
    value {
      type: DT_INT32
    }
  }
  attr {
    key: "value"
    value {
      tensor {
        dtype: DT_INT32
        tensor_shape {
        }
        int_val: 0
      }
    }
  }
}
node {
  name: "train_input_fn/parallel_read/filenames/Greater"
  op: "Greater"
  input: "train_input_fn/parallel_read/filenames/Size"
  input: "train_input_fn/parallel_read/filenames/Greater/y"
  attr {
    key: "T"
    value {
      type: DT_INT32
    }
  }
  attr {
    key: "_output_shapes"
    value {
      list {
        shape {
        }
      }
    }
  }
}
node {
  name: "train_input_fn/parallel_read/filenames/Assert/Const"
  op: "Const"
  attr {
    key: "_output_shapes"
    value {
      list {
        shape {
        }
      }
    }
  }
  attr {
    key: "dtype"
    value {
      type: DT_STRING
    }
  }
  attr {
    key: "value"
    value {
      tensor {
        dtype: DT_STRING
        tensor_shape {
        }
        string_val: "string_input_producer requires a non-null input tensor"
      }
    }
  }
}
node {
  name: "train_input_fn/parallel_read/filenames/Assert/Assert/data_0"
  op: "Const"
  attr {
    key: "_output_shapes"
    value {
      list {
        shape {
        }
      }
    }
  }
  attr {
    key: "dtype"
    value {
      type: DT_STRING
    }
  }
  attr {
    key: "value"
    value {
      tensor {
        dtype: DT_STRING
        tensor_shape {
        }
        string_val: "string_input_producer requires a non-null input tensor"
      }
    }
  }
}
node {
  name: "train_input_fn/parallel_read/filenames/Assert/Assert"
  op: "Assert"
  input: "train_input_fn/parallel_read/filenames/Greater"
  input: "train_input_fn/parallel_read/filenames/Assert/Assert/data_0"
  attr {
    key: "T"
    value {
      list {
        type: DT_STRING
      }
    }
  }
  attr {
    key: "summarize"
    value {
      i: 3
    }
  }
}
node {
  name: "train_input_fn/parallel_read/filenames/Identity"
  op: "Identity"
  input: "train_input_fn/parallel_read/filenames/Const"
  input: "^train_input_fn/parallel_read/filenames/Assert/Assert"
  attr {
    key: "T"
    value {
      type: DT_STRING
    }
  }
  attr {
    key: "_output_shapes"
    value {
      list {
        shape {
          dim {
            size: 1
          }
        }
      }
    }
  }
}
node {
  name: "train_input_fn/parallel_read/filenames"
  op: "FIFOQueueV2"
  attr {
    key: "_output_shapes"
    value {
      list {
        shape {
        }
      }
    }
  }
  attr {
    key: "capacity"
    value {
      i: 32
    }
  }
  attr {
    key: "component_types"
    value {
      list {
        type: DT_STRING
      }
    }
  }
  attr {
    key: "container"
    value {
      s: ""
    }
  }
  attr {
    key: "shapes"
    value {
      list {
        shape {
        }
      }
    }
  }
  attr {
    key: "shared_name"
    value {
      s: ""
    }
  }
}
node {
  name: "train_input_fn/parallel_read/filenames/filenames_EnqueueMany"
  op: "QueueEnqueueManyV2"
  input: "train_input_fn/parallel_read/filenames"
  input: "train_input_fn/parallel_read/filenames/Identity"
  attr {
    key: "Tcomponents"
    value {
      list {
        type: DT_STRING
      }
    }
  }
  attr {
    key: "timeout_ms"
    value {
      i: -1
    }
  }
}
node {
  name: "train_input_fn/parallel_read/filenames/filenames_Close"
  op: "QueueCloseV2"
  input: "train_input_fn/parallel_read/filenames"
  attr {
    key: "cancel_pending_enqueues"
    value {
      b: false
    }
  }
}
node {
  name: "train_input_fn/parallel_read/filenames/filenames_Close_1"
  op: "QueueCloseV2"
  input: "train_input_fn/parallel_read/filenames"
  attr {
    key: "cancel_pending_enqueues"
    value {
      b: true
    }
  }
}
node {
  name: "train_input_fn/parallel_read/filenames/filenames_Size"
  op: "QueueSizeV2"
  input: "train_input_fn/parallel_read/filenames"
  attr {
    key: "_output_shapes"
    value {
      list {
        shape {
        }
      }
    }
  }
}
node {
  name: "train_input_fn/parallel_read/filenames/Cast"
  op: "Cast"
  input: "train_input_fn/parallel_read/filenames/filenames_Size"
  attr {
    key: "DstT"
    value {
      type: DT_FLOAT
    }
  }
  attr {
    key: "SrcT"
    value {
      type: DT_INT32
    }
  }
  attr {
    key: "_output_shapes"
    value {
      list {
        shape {
        }
      }
    }
  }
}
node {
  name: "train_input_fn/parallel_read/filenames/mul/y"
  op: "Const"
  attr {
    key: "_output_shapes"
    value {
      list {
        shape {
        }
      }
    }
  }
  attr {
    key: "dtype"
    value {
      type: DT_FLOAT
    }
  }
  attr {
    key: "value"
    value {
      tensor {
        dtype: DT_FLOAT
        tensor_shape {
        }
        float_val: 0.03125
      }
    }
  }
}
node {
  name: "train_input_fn/parallel_read/filenames/mul"
  op: "Mul"
  input: "train_input_fn/parallel_read/filenames/Cast"
  input: "train_input_fn/parallel_read/filenames/mul/y"
  attr {
    key: "T"
    value {
      type: DT_FLOAT
    }
  }
  attr {
    key: "_output_shapes"
    value {
      list {
        shape {
        }
      }
    }
  }
}
node {
  name: "train_input_fn/parallel_read/filenames/fraction_of_32_full/tags"
  op: "Const"
  attr {
    key: "_output_shapes"
    value {
      list {
        shape {
        }
      }
    }
  }
  attr {
    key: "dtype"
    value {
      type: DT_STRING
    }
  }
  attr {
    key: "value"
    value {
      tensor {
        dtype: DT_STRING
        tensor_shape {
        }
        string_val: "train_input_fn/parallel_read/filenames/fraction_of_32_full"
      }
    }
  }
}
node {
  name: "train_input_fn/parallel_read/filenames/fraction_of_32_full"
  op: "ScalarSummary"
  input: "train_input_fn/parallel_read/filenames/fraction_of_32_full/tags"
  input: "train_input_fn/parallel_read/filenames/mul"
  attr {
    key: "T"
    value {
      type: DT_FLOAT
    }
  }
  attr {
    key: "_output_shapes"
    value {
      list {
        shape {
        }
      }
    }
  }
}
node {
  name: "train_input_fn/parallel_read/common_queue"
  op: "FIFOQueueV2"
  attr {
    key: "_output_shapes"
    value {
      list {
        shape {
        }
      }
    }
  }
  attr {
    key: "capacity"
    value {
      i: 4096
    }
  }
  attr {
    key: "component_types"
    value {
      list {
        type: DT_STRING
        type: DT_STRING
      }
    }
  }
  attr {
    key: "container"
    value {
      s: ""
    }
  }
  attr {
    key: "shapes"
    value {
      list {
      }
    }
  }
  attr {
    key: "shared_name"
    value {
      s: ""
    }
  }
}
node {
  name: "train_input_fn/parallel_read/common_queue_Size"
  op: "QueueSizeV2"
  input: "train_input_fn/parallel_read/common_queue"
  attr {
    key: "_output_shapes"
    value {
      list {
        shape {
        }
      }
    }
  }
}
node {
  name: "train_input_fn/parallel_read/ToFloat"
  op: "Cast"
  input: "train_input_fn/parallel_read/common_queue_Size"
  attr {
    key: "DstT"
    value {
      type: DT_FLOAT
    }
  }
  attr {
    key: "SrcT"
    value {
      type: DT_INT32
    }
  }
  attr {
    key: "_output_shapes"
    value {
      list {
        shape {
        }
      }
    }
  }
}
node {
  name: "train_input_fn/parallel_read/mul/y"
  op: "Const"
  attr {
    key: "_output_shapes"
    value {
      list {
        shape {
        }
      }
    }
  }
  attr {
    key: "dtype"
    value {
      type: DT_FLOAT
    }
  }
  attr {
    key: "value"
    value {
      tensor {
        dtype: DT_FLOAT
        tensor_shape {
        }
        float_val: 0.000244140625
      }
    }
  }
}
node {
  name: "train_input_fn/parallel_read/mul"
  op: "Mul"
  input: "train_input_fn/parallel_read/ToFloat"
  input: "train_input_fn/parallel_read/mul/y"
  attr {
    key: "T"
    value {
      type: DT_FLOAT
    }
  }
  attr {
    key: "_output_shapes"
    value {
      list {
        shape {
        }
      }
    }
  }
}
node {
  name: "train_input_fn/parallel_read/fraction_of_4096_full/tags"
  op: "Const"
  attr {
    key: "_output_shapes"
    value {
      list {
        shape {
        }
      }
    }
  }
  attr {
    key: "dtype"
    value {
      type: DT_STRING
    }
  }
  attr {
    key: "value"
    value {
      tensor {
        dtype: DT_STRING
        tensor_shape {
        }
        string_val: "train_input_fn/parallel_read/fraction_of_4096_full"
      }
    }
  }
}
node {
  name: "train_input_fn/parallel_read/fraction_of_4096_full"
  op: "ScalarSummary"
  input: "train_input_fn/parallel_read/fraction_of_4096_full/tags"
  input: "train_input_fn/parallel_read/mul"
  attr {
    key: "T"
    value {
      type: DT_FLOAT
    }
  }
  attr {
    key: "_output_shapes"
    value {
      list {
        shape {
        }
      }
    }
  }
}
node {
  name: "train_input_fn/parallel_read/TextLineReaderV2"
  op: "TextLineReaderV2"
  attr {
    key: "_output_shapes"
    value {
      list {
        shape {
        }
      }
    }
  }
  attr {
    key: "container"
    value {
      s: ""
    }
  }
  attr {
    key: "shared_name"
    value {
      s: ""
    }
  }
  attr {
    key: "skip_header_lines"
    value {
      i: 0
    }
  }
}
node {
  name: "train_input_fn/parallel_read/ReaderReadV2"
  op: "ReaderReadV2"
  input: "train_input_fn/parallel_read/TextLineReaderV2"
  input: "train_input_fn/parallel_read/filenames"
  attr {
    key: "_output_shapes"
    value {
      list {
        shape {
        }
        shape {
        }
      }
    }
  }
}
node {
  name: "train_input_fn/parallel_read/common_queue_enqueue"
  op: "QueueEnqueueV2"
  input: "train_input_fn/parallel_read/common_queue"
  input: "train_input_fn/parallel_read/ReaderReadV2"
  input: "train_input_fn/parallel_read/ReaderReadV2:1"
  attr {
    key: "Tcomponents"
    value {
      list {
        type: DT_STRING
        type: DT_STRING
      }
    }
  }
  attr {
    key: "timeout_ms"
    value {
      i: -1
    }
  }
}
node {
  name: "train_input_fn/parallel_read/common_queue_Close"
  op: "QueueCloseV2"
  input: "train_input_fn/parallel_read/common_queue"
  attr {
    key: "cancel_pending_enqueues"
    value {
      b: false
    }
  }
}
node {
  name: "train_input_fn/parallel_read/common_queue_Close_1"
  op: "QueueCloseV2"
  input: "train_input_fn/parallel_read/common_queue"
  attr {
    key: "cancel_pending_enqueues"
    value {
      b: true
    }
  }
}
node {
  name: "train_input_fn/parallel_read/common_queue_Dequeue"
  op: "QueueDequeueV2"
  input: "train_input_fn/parallel_read/common_queue"
  attr {
    key: "_output_shapes"
    value {
      list {
        shape {
          unknown_rank: true
        }
        shape {
          unknown_rank: true
        }
      }
    }
  }
  attr {
    key: "component_types"
    value {
      list {
        type: DT_STRING
        type: DT_STRING
      }
    }
  }
  attr {
    key: "timeout_ms"
    value {
      i: -1
    }
  }
}
node {
  name: "train_input_fn/parallel_read_1/filenames/Const"
  op: "Const"
  attr {
    key: "_output_shapes"
    value {
      list {
        shape {
          dim {
            size: 1
          }
        }
      }
    }
  }
  attr {
    key: "dtype"
    value {
      type: DT_STRING
    }
  }
  attr {
    key: "value"
    value {
      tensor {
        dtype: DT_STRING
        tensor_shape {
          dim {
            size: 1
          }
        }
        string_val: "/scratch/mtufano/seq2seq/dataset/50len_ident_lit//train/before.txt"
      }
    }
  }
}
node {
  name: "train_input_fn/parallel_read_1/filenames/Size"
  op: "Const"
  attr {
    key: "_output_shapes"
    value {
      list {
        shape {
        }
      }
    }
  }
  attr {
    key: "dtype"
    value {
      type: DT_INT32
    }
  }
  attr {
    key: "value"
    value {
      tensor {
        dtype: DT_INT32
        tensor_shape {
        }
        int_val: 1
      }
    }
  }
}
node {
  name: "train_input_fn/parallel_read_1/filenames/Greater/y"
  op: "Const"
  attr {
    key: "_output_shapes"
    value {
      list {
        shape {
        }
      }
    }
  }
  attr {
    key: "dtype"
    value {
      type: DT_INT32
    }
  }
  attr {
    key: "value"
    value {
      tensor {
        dtype: DT_INT32
        tensor_shape {
        }
        int_val: 0
      }
    }
  }
}
node {
  name: "train_input_fn/parallel_read_1/filenames/Greater"
  op: "Greater"
  input: "train_input_fn/parallel_read_1/filenames/Size"
  input: "train_input_fn/parallel_read_1/filenames/Greater/y"
  attr {
    key: "T"
    value {
      type: DT_INT32
    }
  }
  attr {
    key: "_output_shapes"
    value {
      list {
        shape {
        }
      }
    }
  }
}
node {
  name: "train_input_fn/parallel_read_1/filenames/Assert/Const"
  op: "Const"
  attr {
    key: "_output_shapes"
    value {
      list {
        shape {
        }
      }
    }
  }
  attr {
    key: "dtype"
    value {
      type: DT_STRING
    }
  }
  attr {
    key: "value"
    value {
      tensor {
        dtype: DT_STRING
        tensor_shape {
        }
        string_val: "string_input_producer requires a non-null input tensor"
      }
    }
  }
}
node {
  name: "train_input_fn/parallel_read_1/filenames/Assert/Assert/data_0"
  op: "Const"
  attr {
    key: "_output_shapes"
    value {
      list {
        shape {
        }
      }
    }
  }
  attr {
    key: "dtype"
    value {
      type: DT_STRING
    }
  }
  attr {
    key: "value"
    value {
      tensor {
        dtype: DT_STRING
        tensor_shape {
        }
        string_val: "string_input_producer requires a non-null input tensor"
      }
    }
  }
}
node {
  name: "train_input_fn/parallel_read_1/filenames/Assert/Assert"
  op: "Assert"
  input: "train_input_fn/parallel_read_1/filenames/Greater"
  input: "train_input_fn/parallel_read_1/filenames/Assert/Assert/data_0"
  attr {
    key: "T"
    value {
      list {
        type: DT_STRING
      }
    }
  }
  attr {
    key: "summarize"
    value {
      i: 3
    }
  }
}
node {
  name: "train_input_fn/parallel_read_1/filenames/Identity"
  op: "Identity"
  input: "train_input_fn/parallel_read_1/filenames/Const"
  input: "^train_input_fn/parallel_read_1/filenames/Assert/Assert"
  attr {
    key: "T"
    value {
      type: DT_STRING
    }
  }
  attr {
    key: "_output_shapes"
    value {
      list {
        shape {
          dim {
            size: 1
          }
        }
      }
    }
  }
}
node {
  name: "train_input_fn/parallel_read_1/filenames"
  op: "FIFOQueueV2"
  attr {
    key: "_output_shapes"
    value {
      list {
        shape {
        }
      }
    }
  }
  attr {
    key: "capacity"
    value {
      i: 32
    }
  }
  attr {
    key: "component_types"
    value {
      list {
        type: DT_STRING
      }
    }
  }
  attr {
    key: "container"
    value {
      s: ""
    }
  }
  attr {
    key: "shapes"
    value {
      list {
        shape {
        }
      }
    }
  }
  attr {
    key: "shared_name"
    value {
      s: ""
    }
  }
}
node {
  name: "train_input_fn/parallel_read_1/filenames/filenames_EnqueueMany"
  op: "QueueEnqueueManyV2"
  input: "train_input_fn/parallel_read_1/filenames"
  input: "train_input_fn/parallel_read_1/filenames/Identity"
  attr {
    key: "Tcomponents"
    value {
      list {
        type: DT_STRING
      }
    }
  }
  attr {
    key: "timeout_ms"
    value {
      i: -1
    }
  }
}
node {
  name: "train_input_fn/parallel_read_1/filenames/filenames_Close"
  op: "QueueCloseV2"
  input: "train_input_fn/parallel_read_1/filenames"
  attr {
    key: "cancel_pending_enqueues"
    value {
      b: false
    }
  }
}
node {
  name: "train_input_fn/parallel_read_1/filenames/filenames_Close_1"
  op: "QueueCloseV2"
  input: "train_input_fn/parallel_read_1/filenames"
  attr {
    key: "cancel_pending_enqueues"
    value {
      b: true
    }
  }
}
node {
  name: "train_input_fn/parallel_read_1/filenames/filenames_Size"
  op: "QueueSizeV2"
  input: "train_input_fn/parallel_read_1/filenames"
  attr {
    key: "_output_shapes"
    value {
      list {
        shape {
        }
      }
    }
  }
}
node {
  name: "train_input_fn/parallel_read_1/filenames/Cast"
  op: "Cast"
  input: "train_input_fn/parallel_read_1/filenames/filenames_Size"
  attr {
    key: "DstT"
    value {
      type: DT_FLOAT
    }
  }
  attr {
    key: "SrcT"
    value {
      type: DT_INT32
    }
  }
  attr {
    key: "_output_shapes"
    value {
      list {
        shape {
        }
      }
    }
  }
}
node {
  name: "train_input_fn/parallel_read_1/filenames/mul/y"
  op: "Const"
  attr {
    key: "_output_shapes"
    value {
      list {
        shape {
        }
      }
    }
  }
  attr {
    key: "dtype"
    value {
      type: DT_FLOAT
    }
  }
  attr {
    key: "value"
    value {
      tensor {
        dtype: DT_FLOAT
        tensor_shape {
        }
        float_val: 0.03125
      }
    }
  }
}
node {
  name: "train_input_fn/parallel_read_1/filenames/mul"
  op: "Mul"
  input: "train_input_fn/parallel_read_1/filenames/Cast"
  input: "train_input_fn/parallel_read_1/filenames/mul/y"
  attr {
    key: "T"
    value {
      type: DT_FLOAT
    }
  }
  attr {
    key: "_output_shapes"
    value {
      list {
        shape {
        }
      }
    }
  }
}
node {
  name: "train_input_fn/parallel_read_1/filenames/fraction_of_32_full/tags"
  op: "Const"
  attr {
    key: "_output_shapes"
    value {
      list {
        shape {
        }
      }
    }
  }
  attr {
    key: "dtype"
    value {
      type: DT_STRING
    }
  }
  attr {
    key: "value"
    value {
      tensor {
        dtype: DT_STRING
        tensor_shape {
        }
        string_val: "train_input_fn/parallel_read_1/filenames/fraction_of_32_full"
      }
    }
  }
}
node {
  name: "train_input_fn/parallel_read_1/filenames/fraction_of_32_full"
  op: "ScalarSummary"
  input: "train_input_fn/parallel_read_1/filenames/fraction_of_32_full/tags"
  input: "train_input_fn/parallel_read_1/filenames/mul"
  attr {
    key: "T"
    value {
      type: DT_FLOAT
    }
  }
  attr {
    key: "_output_shapes"
    value {
      list {
        shape {
        }
      }
    }
  }
}
node {
  name: "train_input_fn/parallel_read_1/common_queue"
  op: "FIFOQueueV2"
  attr {
    key: "_output_shapes"
    value {
      list {
        shape {
        }
      }
    }
  }
  attr {
    key: "capacity"
    value {
      i: 4096
    }
  }
  attr {
    key: "component_types"
    value {
      list {
        type: DT_STRING
        type: DT_STRING
      }
    }
  }
  attr {
    key: "container"
    value {
      s: ""
    }
  }
  attr {
    key: "shapes"
    value {
      list {
      }
    }
  }
  attr {
    key: "shared_name"
    value {
      s: ""
    }
  }
}
node {
  name: "train_input_fn/parallel_read_1/common_queue_Size"
  op: "QueueSizeV2"
  input: "train_input_fn/parallel_read_1/common_queue"
  attr {
    key: "_output_shapes"
    value {
      list {
        shape {
        }
      }
    }
  }
}
node {
  name: "train_input_fn/parallel_read_1/ToFloat"
  op: "Cast"
  input: "train_input_fn/parallel_read_1/common_queue_Size"
  attr {
    key: "DstT"
    value {
      type: DT_FLOAT
    }
  }
  attr {
    key: "SrcT"
    value {
      type: DT_INT32
    }
  }
  attr {
    key: "_output_shapes"
    value {
      list {
        shape {
        }
      }
    }
  }
}
node {
  name: "train_input_fn/parallel_read_1/mul/y"
  op: "Const"
  attr {
    key: "_output_shapes"
    value {
      list {
        shape {
        }
      }
    }
  }
  attr {
    key: "dtype"
    value {
      type: DT_FLOAT
    }
  }
  attr {
    key: "value"
    value {
      tensor {
        dtype: DT_FLOAT
        tensor_shape {
        }
        float_val: 0.000244140625
      }
    }
  }
}
node {
  name: "train_input_fn/parallel_read_1/mul"
  op: "Mul"
  input: "train_input_fn/parallel_read_1/ToFloat"
  input: "train_input_fn/parallel_read_1/mul/y"
  attr {
    key: "T"
    value {
      type: DT_FLOAT
    }
  }
  attr {
    key: "_output_shapes"
    value {
      list {
        shape {
        }
      }
    }
  }
}
node {
  name: "train_input_fn/parallel_read_1/fraction_of_4096_full/tags"
  op: "Const"
  attr {
    key: "_output_shapes"
    value {
      list {
        shape {
        }
      }
    }
  }
  attr {
    key: "dtype"
    value {
      type: DT_STRING
    }
  }
  attr {
    key: "value"
    value {
      tensor {
        dtype: DT_STRING
        tensor_shape {
        }
        string_val: "train_input_fn/parallel_read_1/fraction_of_4096_full"
      }
    }
  }
}
node {
  name: "train_input_fn/parallel_read_1/fraction_of_4096_full"
  op: "ScalarSummary"
  input: "train_input_fn/parallel_read_1/fraction_of_4096_full/tags"
  input: "train_input_fn/parallel_read_1/mul"
  attr {
    key: "T"
    value {
      type: DT_FLOAT
    }
  }
  attr {
    key: "_output_shapes"
    value {
      list {
        shape {
        }
      }
    }
  }
}
node {
  name: "train_input_fn/parallel_read_1/TextLineReaderV2"
  op: "TextLineReaderV2"
  attr {
    key: "_output_shapes"
    value {
      list {
        shape {
        }
      }
    }
  }
  attr {
    key: "container"
    value {
      s: ""
    }
  }
  attr {
    key: "shared_name"
    value {
      s: ""
    }
  }
  attr {
    key: "skip_header_lines"
    value {
      i: 0
    }
  }
}
node {
  name: "train_input_fn/parallel_read_1/ReaderReadV2"
  op: "ReaderReadV2"
  input: "train_input_fn/parallel_read_1/TextLineReaderV2"
  input: "train_input_fn/parallel_read_1/filenames"
  attr {
    key: "_output_shapes"
    value {
      list {
        shape {
        }
        shape {
        }
      }
    }
  }
}
node {
  name: "train_input_fn/parallel_read_1/common_queue_enqueue"
  op: "QueueEnqueueV2"
  input: "train_input_fn/parallel_read_1/common_queue"
  input: "train_input_fn/parallel_read_1/ReaderReadV2"
  input: "train_input_fn/parallel_read_1/ReaderReadV2:1"
  attr {
    key: "Tcomponents"
    value {
      list {
        type: DT_STRING
        type: DT_STRING
      }
    }
  }
  attr {
    key: "timeout_ms"
    value {
      i: -1
    }
  }
}
node {
  name: "train_input_fn/parallel_read_1/common_queue_Close"
  op: "QueueCloseV2"
  input: "train_input_fn/parallel_read_1/common_queue"
  attr {
    key: "cancel_pending_enqueues"
    value {
      b: false
    }
  }
}
node {
  name: "train_input_fn/parallel_read_1/common_queue_Close_1"
  op: "QueueCloseV2"
  input: "train_input_fn/parallel_read_1/common_queue"
  attr {
    key: "cancel_pending_enqueues"
    value {
      b: true
    }
  }
}
node {
  name: "train_input_fn/parallel_read_1/common_queue_Dequeue"
  op: "QueueDequeueV2"
  input: "train_input_fn/parallel_read_1/common_queue"
  attr {
    key: "_output_shapes"
    value {
      list {
        shape {
          unknown_rank: true
        }
        shape {
          unknown_rank: true
        }
      }
    }
  }
  attr {
    key: "component_types"
    value {
      list {
        type: DT_STRING
        type: DT_STRING
      }
    }
  }
  attr {
    key: "timeout_ms"
    value {
      i: -1
    }
  }
}
node {
  name: "train_input_fn/random_shuffle_queue"
  op: "RandomShuffleQueueV2"
  attr {
    key: "_output_shapes"
    value {
      list {
        shape {
        }
      }
    }
  }
  attr {
    key: "capacity"
    value {
      i: 4096
    }
  }
  attr {
    key: "component_types"
    value {
      list {
        type: DT_STRING
        type: DT_STRING
      }
    }
  }
  attr {
    key: "container"
    value {
      s: ""
    }
  }
  attr {
    key: "min_after_dequeue"
    value {
      i: 1024
    }
  }
  attr {
    key: "seed"
    value {
      i: 87654321
    }
  }
  attr {
    key: "seed2"
    value {
      i: 752801989
    }
  }
  attr {
    key: "shapes"
    value {
      list {
      }
    }
  }
  attr {
    key: "shared_name"
    value {
      s: ""
    }
  }
}
node {
  name: "train_input_fn/random_shuffle_queue_enqueue"
  op: "QueueEnqueueV2"
  input: "train_input_fn/random_shuffle_queue"
  input: "train_input_fn/parallel_read/common_queue_Dequeue:1"
  input: "train_input_fn/parallel_read_1/common_queue_Dequeue:1"
  attr {
    key: "Tcomponents"
    value {
      list {
        type: DT_STRING
        type: DT_STRING
      }
    }
  }
  attr {
    key: "timeout_ms"
    value {
      i: -1
    }
  }
}
node {
  name: "train_input_fn/random_shuffle_queue_Close"
  op: "QueueCloseV2"
  input: "train_input_fn/random_shuffle_queue"
  attr {
    key: "cancel_pending_enqueues"
    value {
      b: false
    }
  }
}
node {
  name: "train_input_fn/random_shuffle_queue_Close_1"
  op: "QueueCloseV2"
  input: "train_input_fn/random_shuffle_queue"
  attr {
    key: "cancel_pending_enqueues"
    value {
      b: true
    }
  }
}
node {
  name: "train_input_fn/random_shuffle_queue_Dequeue"
  op: "QueueDequeueV2"
  input: "train_input_fn/random_shuffle_queue"
  attr {
    key: "_output_shapes"
    value {
      list {
        shape {
          unknown_rank: true
        }
        shape {
          unknown_rank: true
        }
      }
    }
  }
  attr {
    key: "component_types"
    value {
      list {
        type: DT_STRING
        type: DT_STRING
      }
    }
  }
  attr {
    key: "timeout_ms"
    value {
      i: -1
    }
  }
}
node {
  name: "train_input_fn/Const"
  op: "Const"
  attr {
    key: "_output_shapes"
    value {
      list {
        shape {
        }
      }
    }
  }
  attr {
    key: "dtype"
    value {
      type: DT_STRING
    }
  }
  attr {
    key: "value"
    value {
      tensor {
        dtype: DT_STRING
        tensor_shape {
        }
        string_val: " "
      }
    }
  }
}
node {
  name: "train_input_fn/packed"
  op: "Pack"
  input: "train_input_fn/random_shuffle_queue_Dequeue"
  attr {
    key: "N"
    value {
      i: 1
    }
  }
  attr {
    key: "T"
    value {
      type: DT_STRING
    }
  }
  attr {
    key: "_output_shapes"
    value {
      list {
        shape {
          unknown_rank: true
        }
      }
    }
  }
  attr {
    key: "axis"
    value {
      i: 0
    }
  }
}
node {
  name: "train_input_fn/StringSplit"
  op: "StringSplit"
  input: "train_input_fn/packed"
  input: "train_input_fn/Const"
  attr {
    key: "_output_shapes"
    value {
      list {
        shape {
          dim {
            size: -1
          }
          dim {
            size: 2
          }
        }
        shape {
          dim {
            size: -1
          }
        }
        shape {
          dim {
            size: 2
          }
        }
      }
    }
  }
}
node {
  name: "train_input_fn/concat/values_1"
  op: "Const"
  attr {
    key: "_output_shapes"
    value {
      list {
        shape {
          dim {
            size: 1
          }
        }
      }
    }
  }
  attr {
    key: "dtype"
    value {
      type: DT_STRING
    }
  }
  attr {
    key: "value"
    value {
      tensor {
        dtype: DT_STRING
        tensor_shape {
          dim {
            size: 1
          }
        }
        string_val: "SEQUENCE_END"
      }
    }
  }
}
node {
  name: "train_input_fn/concat/axis"
  op: "Const"
  attr {
    key: "_output_shapes"
    value {
      list {
        shape {
        }
      }
    }
  }
  attr {
    key: "dtype"
    value {
      type: DT_INT32
    }
  }
  attr {
    key: "value"
    value {
      tensor {
        dtype: DT_INT32
        tensor_shape {
        }
        int_val: 0
      }
    }
  }
}
node {
  name: "train_input_fn/concat"
  op: "ConcatV2"
  input: "train_input_fn/StringSplit:1"
  input: "train_input_fn/concat/values_1"
  input: "train_input_fn/concat/axis"
  attr {
    key: "N"
    value {
      i: 2
    }
  }
  attr {
    key: "T"
    value {
      type: DT_STRING
    }
  }
  attr {
    key: "Tidx"
    value {
      type: DT_INT32
    }
  }
  attr {
    key: "_output_shapes"
    value {
      list {
        shape {
          dim {
            size: -1
          }
        }
      }
    }
  }
}
node {
  name: "train_input_fn/Size"
  op: "Size"
  input: "train_input_fn/concat"
  attr {
    key: "T"
    value {
      type: DT_STRING
    }
  }
  attr {
    key: "_output_shapes"
    value {
      list {
        shape {
        }
      }
    }
  }
  attr {
    key: "out_type"
    value {
      type: DT_INT32
    }
  }
}
node {
  name: "train_input_fn/Const_1"
  op: "Const"
  attr {
    key: "_output_shapes"
    value {
      list {
        shape {
        }
      }
    }
  }
  attr {
    key: "dtype"
    value {
      type: DT_STRING
    }
  }
  attr {
    key: "value"
    value {
      tensor {
        dtype: DT_STRING
        tensor_shape {
        }
        string_val: " "
      }
    }
  }
}
node {
  name: "train_input_fn/packed_1"
  op: "Pack"
  input: "train_input_fn/random_shuffle_queue_Dequeue:1"
  attr {
    key: "N"
    value {
      i: 1
    }
  }
  attr {
    key: "T"
    value {
      type: DT_STRING
    }
  }
  attr {
    key: "_output_shapes"
    value {
      list {
        shape {
          unknown_rank: true
        }
      }
    }
  }
  attr {
    key: "axis"
    value {
      i: 0
    }
  }
}
node {
  name: "train_input_fn/StringSplit_1"
  op: "StringSplit"
  input: "train_input_fn/packed_1"
  input: "train_input_fn/Const_1"
  attr {
    key: "_output_shapes"
    value {
      list {
        shape {
          dim {
            size: -1
          }
          dim {
            size: 2
          }
        }
        shape {
          dim {
            size: -1
          }
        }
        shape {
          dim {
            size: 2
          }
        }
      }
    }
  }
}
node {
  name: "train_input_fn/concat_1/values_0"
  op: "Const"
  attr {
    key: "_output_shapes"
    value {
      list {
        shape {
          dim {
            size: 1
          }
        }
      }
    }
  }
  attr {
    key: "dtype"
    value {
      type: DT_STRING
    }
  }
  attr {
    key: "value"
    value {
      tensor {
        dtype: DT_STRING
        tensor_shape {
          dim {
            size: 1
          }
        }
        string_val: "SEQUENCE_START"
      }
    }
  }
}
node {
  name: "train_input_fn/concat_1/axis"
  op: "Const"
  attr {
    key: "_output_shapes"
    value {
      list {
        shape {
        }
      }
    }
  }
  attr {
    key: "dtype"
    value {
      type: DT_INT32
    }
  }
  attr {
    key: "value"
    value {
      tensor {
        dtype: DT_INT32
        tensor_shape {
        }
        int_val: 0
      }
    }
  }
}
node {
  name: "train_input_fn/concat_1"
  op: "ConcatV2"
  input: "train_input_fn/concat_1/values_0"
  input: "train_input_fn/StringSplit_1:1"
  input: "train_input_fn/concat_1/axis"
  attr {
    key: "N"
    value {
      i: 2
    }
  }
  attr {
    key: "T"
    value {
      type: DT_STRING
    }
  }
  attr {
    key: "Tidx"
    value {
      type: DT_INT32
    }
  }
  attr {
    key: "_output_shapes"
    value {
      list {
        shape {
          dim {
            size: -1
          }
        }
      }
    }
  }
}
node {
  name: "train_input_fn/concat_2/values_1"
  op: "Const"
  attr {
    key: "_output_shapes"
    value {
      list {
        shape {
          dim {
            size: 1
          }
        }
      }
    }
  }
  attr {
    key: "dtype"
    value {
      type: DT_STRING
    }
  }
  attr {
    key: "value"
    value {
      tensor {
        dtype: DT_STRING
        tensor_shape {
          dim {
            size: 1
          }
        }
        string_val: "SEQUENCE_END"
      }
    }
  }
}
node {
  name: "train_input_fn/concat_2/axis"
  op: "Const"
  attr {
    key: "_output_shapes"
    value {
      list {
        shape {
        }
      }
    }
  }
  attr {
    key: "dtype"
    value {
      type: DT_INT32
    }
  }
  attr {
    key: "value"
    value {
      tensor {
        dtype: DT_INT32
        tensor_shape {
        }
        int_val: 0
      }
    }
  }
}
node {
  name: "train_input_fn/concat_2"
  op: "ConcatV2"
  input: "train_input_fn/concat_1"
  input: "train_input_fn/concat_2/values_1"
  input: "train_input_fn/concat_2/axis"
  attr {
    key: "N"
    value {
      i: 2
    }
  }
  attr {
    key: "T"
    value {
      type: DT_STRING
    }
  }
  attr {
    key: "Tidx"
    value {
      type: DT_INT32
    }
  }
  attr {
    key: "_output_shapes"
    value {
      list {
        shape {
          dim {
            size: -1
          }
        }
      }
    }
  }
}
node {
  name: "train_input_fn/Size_1"
  op: "Size"
  input: "train_input_fn/concat_2"
  attr {
    key: "T"
    value {
      type: DT_STRING
    }
  }
  attr {
    key: "_output_shapes"
    value {
      list {
        shape {
        }
      }
    }
  }
  attr {
    key: "out_type"
    value {
      type: DT_INT32
    }
  }
}
node {
  name: "train_input_fn/GreaterEqual/y"
  op: "Const"
  attr {
    key: "_output_shapes"
    value {
      list {
        shape {
        }
      }
    }
  }
  attr {
    key: "dtype"
    value {
      type: DT_INT32
    }
  }
  attr {
    key: "value"
    value {
      tensor {
        dtype: DT_INT32
        tensor_shape {
        }
        int_val: 1
      }
    }
  }
}
node {
  name: "train_input_fn/GreaterEqual"
  op: "GreaterEqual"
  input: "train_input_fn/Size"
  input: "train_input_fn/GreaterEqual/y"
  attr {
    key: "T"
    value {
      type: DT_INT32
    }
  }
  attr {
    key: "_output_shapes"
    value {
      list {
        shape {
        }
      }
    }
  }
}
node {
  name: "train_input_fn/bucket_queue/LessEqual/x"
  op: "Const"
  attr {
    key: "_output_shapes"
    value {
      list {
        shape {
          dim {
            size: 5
          }
        }
      }
    }
  }
  attr {
    key: "dtype"
    value {
      type: DT_INT32
    }
  }
  attr {
    key: "value"
    value {
      tensor {
        dtype: DT_INT32
        tensor_shape {
          dim {
            size: 5
          }
        }
        tensor_content: "\000\000\000\200\n\000\000\000\024\000\000\000\036\000\000\000(\000\000\000"
      }
    }
  }
}
node {
  name: "train_input_fn/bucket_queue/LessEqual"
  op: "LessEqual"
  input: "train_input_fn/bucket_queue/LessEqual/x"
  input: "train_input_fn/Size"
  attr {
    key: "T"
    value {
      type: DT_INT32
    }
  }
  attr {
    key: "_output_shapes"
    value {
      list {
        shape {
          dim {
            size: 5
          }
        }
      }
    }
  }
}
node {
  name: "train_input_fn/bucket_queue/Less/y"
  op: "Const"
  attr {
    key: "_output_shapes"
    value {
      list {
        shape {
          dim {
            size: 5
          }
        }
      }
    }
  }
  attr {
    key: "dtype"
    value {
      type: DT_INT32
    }
  }
  attr {
    key: "value"
    value {
      tensor {
        dtype: DT_INT32
        tensor_shape {
          dim {
            size: 5
          }
        }
        tensor_content: "\n\000\000\000\024\000\000\000\036\000\000\000(\000\000\000\377\377\377\177"
      }
    }
  }
}
node {
  name: "train_input_fn/bucket_queue/Less"
  op: "Less"
  input: "train_input_fn/Size"
  input: "train_input_fn/bucket_queue/Less/y"
  attr {
    key: "T"
    value {
      type: DT_INT32
    }
  }
  attr {
    key: "_output_shapes"
    value {
      list {
        shape {
          dim {
            size: 5
          }
        }
      }
    }
  }
}
node {
  name: "train_input_fn/bucket_queue/LogicalAnd"
  op: "LogicalAnd"
  input: "train_input_fn/bucket_queue/LessEqual"
  input: "train_input_fn/bucket_queue/Less"
  attr {
    key: "_output_shapes"
    value {
      list {
        shape {
          dim {
            size: 5
          }
        }
      }
    }
  }
}
node {
  name: "train_input_fn/bucket_queue/Where"
  op: "Where"
  input: "train_input_fn/bucket_queue/LogicalAnd"
  attr {
    key: "_output_shapes"
    value {
      list {
        shape {
          dim {
            size: -1
          }
          dim {
            size: 1
          }
        }
      }
    }
  }
}
node {
  name: "train_input_fn/bucket_queue/Const"
  op: "Const"
  attr {
    key: "_output_shapes"
    value {
      list {
        shape {
          dim {
            size: 2
          }
        }
      }
    }
  }
  attr {
    key: "dtype"
    value {
      type: DT_INT32
    }
  }
  attr {
    key: "value"
    value {
      tensor {
        dtype: DT_INT32
        tensor_shape {
          dim {
            size: 2
          }
        }
        tensor_content: "\000\000\000\000\001\000\000\000"
      }
    }
  }
}
node {
  name: "train_input_fn/bucket_queue/Min"
  op: "Min"
  input: "train_input_fn/bucket_queue/Where"
  input: "train_input_fn/bucket_queue/Const"
  attr {
    key: "T"
    value {
      type: DT_INT64
    }
  }
  attr {
    key: "Tidx"
    value {
      type: DT_INT32
    }
  }
  attr {
    key: "_output_shapes"
    value {
      list {
        shape {
        }
      }
    }
  }
  attr {
    key: "keep_dims"
    value {
      b: false
    }
  }
}
node {
  name: "train_input_fn/bucket_queue/ToInt32"
  op: "Cast"
  input: "train_input_fn/bucket_queue/Min"
  attr {
    key: "DstT"
    value {
      type: DT_INT32
    }
  }
  attr {
    key: "SrcT"
    value {
      type: DT_INT64
    }
  }
  attr {
    key: "_output_shapes"
    value {
      list {
        shape {
        }
      }
    }
  }
}
node {
  name: "train_input_fn/bucket_queue/bucket/batch_size"
  op: "Const"
  attr {
    key: "_output_shapes"
    value {
      list {
        shape {
        }
      }
    }
  }
  attr {
    key: "dtype"
    value {
      type: DT_INT32
    }
  }
  attr {
    key: "value"
    value {
      tensor {
        dtype: DT_INT32
        tensor_shape {
        }
        int_val: 32
      }
    }
  }
}
node {
  name: "train_input_fn/bucket_queue/bucket/batch_size_1"
  op: "Const"
  attr {
    key: "_output_shapes"
    value {
      list {
        shape {
        }
      }
    }
  }
  attr {
    key: "dtype"
    value {
      type: DT_INT32
    }
  }
  attr {
    key: "value"
    value {
      tensor {
        dtype: DT_INT32
        tensor_shape {
        }
        int_val: 32
      }
    }
  }
}
node {
  name: "train_input_fn/bucket_queue/bucket/batch_size_2"
  op: "Const"
  attr {
    key: "_output_shapes"
    value {
      list {
        shape {
        }
      }
    }
  }
  attr {
    key: "dtype"
    value {
      type: DT_INT32
    }
  }
  attr {
    key: "value"
    value {
      tensor {
        dtype: DT_INT32
        tensor_shape {
        }
        int_val: 32
      }
    }
  }
}
node {
  name: "train_input_fn/bucket_queue/bucket/batch_size_3"
  op: "Const"
  attr {
    key: "_output_shapes"
    value {
      list {
        shape {
        }
      }
    }
  }
  attr {
    key: "dtype"
    value {
      type: DT_INT32
    }
  }
  attr {
    key: "value"
    value {
      tensor {
        dtype: DT_INT32
        tensor_shape {
        }
        int_val: 32
      }
    }
  }
}
node {
  name: "train_input_fn/bucket_queue/bucket/batch_size_4"
  op: "Const"
  attr {
    key: "_output_shapes"
    value {
      list {
        shape {
        }
      }
    }
  }
  attr {
    key: "dtype"
    value {
      type: DT_INT32
    }
  }
  attr {
    key: "value"
    value {
      tensor {
        dtype: DT_INT32
        tensor_shape {
        }
        int_val: 32
      }
    }
  }
}
node {
  name: "train_input_fn/bucket_queue/bucket/bucket_queue_0"
  op: "PaddingFIFOQueueV2"
  attr {
    key: "_output_shapes"
    value {
      list {
        shape {
        }
      }
    }
  }
  attr {
    key: "capacity"
    value {
      i: 5512
    }
  }
  attr {
    key: "component_types"
    value {
      list {
        type: DT_INT32
        type: DT_INT32
        type: DT_STRING
        type: DT_INT32
        type: DT_STRING
      }
    }
  }
  attr {
    key: "container"
    value {
      s: ""
    }
  }
  attr {
    key: "shapes"
    value {
      list {
        shape {
        }
        shape {
        }
        shape {
          dim {
            size: -1
          }
        }
        shape {
        }
        shape {
          dim {
            size: -1
          }
        }
      }
    }
  }
  attr {
    key: "shared_name"
    value {
      s: ""
    }
  }
}
node {
  name: "train_input_fn/bucket_queue/bucket/bucket_queue_1"
  op: "PaddingFIFOQueueV2"
  attr {
    key: "_output_shapes"
    value {
      list {
        shape {
        }
      }
    }
  }
  attr {
    key: "capacity"
    value {
      i: 5512
    }
  }
  attr {
    key: "component_types"
    value {
      list {
        type: DT_INT32
        type: DT_INT32
        type: DT_STRING
        type: DT_INT32
        type: DT_STRING
      }
    }
  }
  attr {
    key: "container"
    value {
      s: ""
    }
  }
  attr {
    key: "shapes"
    value {
      list {
        shape {
        }
        shape {
        }
        shape {
          dim {
            size: -1
          }
        }
        shape {
        }
        shape {
          dim {
            size: -1
          }
        }
      }
    }
  }
  attr {
    key: "shared_name"
    value {
      s: ""
    }
  }
}
node {
  name: "train_input_fn/bucket_queue/bucket/bucket_queue_2"
  op: "PaddingFIFOQueueV2"
  attr {
    key: "_output_shapes"
    value {
      list {
        shape {
        }
      }
    }
  }
  attr {
    key: "capacity"
    value {
      i: 5512
    }
  }
  attr {
    key: "component_types"
    value {
      list {
        type: DT_INT32
        type: DT_INT32
        type: DT_STRING
        type: DT_INT32
        type: DT_STRING
      }
    }
  }
  attr {
    key: "container"
    value {
      s: ""
    }
  }
  attr {
    key: "shapes"
    value {
      list {
        shape {
        }
        shape {
        }
        shape {
          dim {
            size: -1
          }
        }
        shape {
        }
        shape {
          dim {
            size: -1
          }
        }
      }
    }
  }
  attr {
    key: "shared_name"
    value {
      s: ""
    }
  }
}
node {
  name: "train_input_fn/bucket_queue/bucket/bucket_queue_3"
  op: "PaddingFIFOQueueV2"
  attr {
    key: "_output_shapes"
    value {
      list {
        shape {
        }
      }
    }
  }
  attr {
    key: "capacity"
    value {
      i: 5512
    }
  }
  attr {
    key: "component_types"
    value {
      list {
        type: DT_INT32
        type: DT_INT32
        type: DT_STRING
        type: DT_INT32
        type: DT_STRING
      }
    }
  }
  attr {
    key: "container"
    value {
      s: ""
    }
  }
  attr {
    key: "shapes"
    value {
      list {
        shape {
        }
        shape {
        }
        shape {
          dim {
            size: -1
          }
        }
        shape {
        }
        shape {
          dim {
            size: -1
          }
        }
      }
    }
  }
  attr {
    key: "shared_name"
    value {
      s: ""
    }
  }
}
node {
  name: "train_input_fn/bucket_queue/bucket/bucket_queue_4"
  op: "PaddingFIFOQueueV2"
  attr {
    key: "_output_shapes"
    value {
      list {
        shape {
        }
      }
    }
  }
  attr {
    key: "capacity"
    value {
      i: 5512
    }
  }
  attr {
    key: "component_types"
    value {
      list {
        type: DT_INT32
        type: DT_INT32
        type: DT_STRING
        type: DT_INT32
        type: DT_STRING
      }
    }
  }
  attr {
    key: "container"
    value {
      s: ""
    }
  }
  attr {
    key: "shapes"
    value {
      list {
        shape {
        }
        shape {
        }
        shape {
          dim {
            size: -1
          }
        }
        shape {
        }
        shape {
          dim {
            size: -1
          }
        }
      }
    }
  }
  attr {
    key: "shared_name"
    value {
      s: ""
    }
  }
}
node {
  name: "train_input_fn/bucket_queue/bucket/top_queue"
  op: "PaddingFIFOQueueV2"
  attr {
    key: "_output_shapes"
    value {
      list {
        shape {
        }
      }
    }
  }
  attr {
    key: "capacity"
    value {
      i: 5512
    }
  }
  attr {
    key: "component_types"
    value {
      list {
        type: DT_INT32
        type: DT_INT32
        type: DT_INT32
        type: DT_STRING
        type: DT_INT32
        type: DT_STRING
      }
    }
  }
  attr {
    key: "container"
    value {
      s: ""
    }
  }
  attr {
    key: "shapes"
    value {
      list {
        shape {
        }
        shape {
          dim {
            size: 32
          }
        }
        shape {
          dim {
            size: 32
          }
        }
        shape {
          dim {
            size: 32
          }
          dim {
            size: -1
          }
        }
        shape {
          dim {
            size: 32
          }
        }
        shape {
          dim {
            size: 32
          }
          dim {
            size: -1
          }
        }
      }
    }
  }
  attr {
    key: "shared_name"
    value {
      s: ""
    }
  }
}
node {
  name: "train_input_fn/bucket_queue/bucket/cond/Switch"
  op: "Switch"
  input: "train_input_fn/GreaterEqual"
  input: "train_input_fn/GreaterEqual"
  attr {
    key: "T"
    value {
      type: DT_BOOL
    }
  }
  attr {
    key: "_output_shapes"
    value {
      list {
        shape {
        }
        shape {
        }
      }
    }
  }
}
node {
  name: "train_input_fn/bucket_queue/bucket/cond/switch_t"
  op: "Identity"
  input: "train_input_fn/bucket_queue/bucket/cond/Switch:1"
  attr {
    key: "T"
    value {
      type: DT_BOOL
    }
  }
  attr {
    key: "_output_shapes"
    value {
      list {
        shape {
        }
      }
    }
  }
}
node {
  name: "train_input_fn/bucket_queue/bucket/cond/switch_f"
  op: "Identity"
  input: "train_input_fn/bucket_queue/bucket/cond/Switch"
  attr {
    key: "T"
    value {
      type: DT_BOOL
    }
  }
  attr {
    key: "_output_shapes"
    value {
      list {
        shape {
        }
      }
    }
  }
}
node {
  name: "train_input_fn/bucket_queue/bucket/cond/pred_id"
  op: "Identity"
  input: "train_input_fn/GreaterEqual"
  attr {
    key: "T"
    value {
      type: DT_BOOL
    }
  }
  attr {
    key: "_output_shapes"
    value {
      list {
        shape {
        }
      }
    }
  }
}
node {
  name: "train_input_fn/bucket_queue/bucket/cond/Equal/y"
  op: "Const"
  input: "^train_input_fn/bucket_queue/bucket/cond/switch_t"
  attr {
    key: "_output_shapes"
    value {
      list {
        shape {
        }
      }
    }
  }
  attr {
    key: "dtype"
    value {
      type: DT_INT32
    }
  }
  attr {
    key: "value"
    value {
      tensor {
        dtype: DT_INT32
        tensor_shape {
        }
        int_val: 0
      }
    }
  }
}
node {
  name: "train_input_fn/bucket_queue/bucket/cond/Equal/Switch"
  op: "Switch"
  input: "train_input_fn/bucket_queue/ToInt32"
  input: "train_input_fn/bucket_queue/bucket/cond/pred_id"
  attr {
    key: "T"
    value {
      type: DT_INT32
    }
  }
  attr {
    key: "_class"
    value {
      list {
        s: "loc:@train_input_fn/bucket_queue/ToInt32"
      }
    }
  }
  attr {
    key: "_output_shapes"
    value {
      list {
        shape {
        }
        shape {
        }
      }
    }
  }
}
node {
  name: "train_input_fn/bucket_queue/bucket/cond/Equal"
  op: "Equal"
  input: "train_input_fn/bucket_queue/bucket/cond/Equal/Switch:1"
  input: "train_input_fn/bucket_queue/bucket/cond/Equal/y"
  attr {
    key: "T"
    value {
      type: DT_INT32
    }
  }
  attr {
    key: "_output_shapes"
    value {
      list {
        shape {
        }
      }
    }
  }
}
node {
  name: "train_input_fn/bucket_queue/bucket/cond/cond/Switch"
  op: "Switch"
  input: "train_input_fn/bucket_queue/bucket/cond/Equal"
  input: "train_input_fn/bucket_queue/bucket/cond/Equal"
  attr {
    key: "T"
    value {
      type: DT_BOOL
    }
  }
  attr {
    key: "_output_shapes"
    value {
      list {
        shape {
        }
        shape {
        }
      }
    }
  }
}
node {
  name: "train_input_fn/bucket_queue/bucket/cond/cond/switch_t"
  op: "Identity"
  input: "train_input_fn/bucket_queue/bucket/cond/cond/Switch:1"
  attr {
    key: "T"
    value {
      type: DT_BOOL
    }
  }
  attr {
    key: "_output_shapes"
    value {
      list {
        shape {
        }
      }
    }
  }
}
node {
  name: "train_input_fn/bucket_queue/bucket/cond/cond/switch_f"
  op: "Identity"
  input: "train_input_fn/bucket_queue/bucket/cond/cond/Switch"
  attr {
    key: "T"
    value {
      type: DT_BOOL
    }
  }
  attr {
    key: "_output_shapes"
    value {
      list {
        shape {
        }
      }
    }
  }
}
node {
  name: "train_input_fn/bucket_queue/bucket/cond/cond/pred_id"
  op: "Identity"
  input: "train_input_fn/bucket_queue/bucket/cond/Equal"
  attr {
    key: "T"
    value {
      type: DT_BOOL
    }
  }
  attr {
    key: "_output_shapes"
    value {
      list {
        shape {
        }
      }
    }
  }
}
node {
  name: "train_input_fn/bucket_queue/bucket/cond/cond/bucket_queue_0_enqueue/Switch"
  op: "Switch"
  input: "train_input_fn/bucket_queue/bucket/bucket_queue_0"
  input: "train_input_fn/bucket_queue/bucket/cond/pred_id"
  attr {
    key: "T"
    value {
      type: DT_RESOURCE
    }
  }
  attr {
    key: "_class"
    value {
      list {
        s: "loc:@train_input_fn/bucket_queue/bucket/bucket_queue_0"
      }
    }
  }
  attr {
    key: "_output_shapes"
    value {
      list {
        shape {
        }
        shape {
        }
      }
    }
  }
}
node {
  name: "train_input_fn/bucket_queue/bucket/cond/cond/bucket_queue_0_enqueue/Switch_1"
  op: "Switch"
  input: "train_input_fn/bucket_queue/bucket/cond/cond/bucket_queue_0_enqueue/Switch:1"
  input: "train_input_fn/bucket_queue/bucket/cond/cond/pred_id"
  attr {
    key: "T"
    value {
      type: DT_RESOURCE
    }
  }
  attr {
    key: "_class"
    value {
      list {
        s: "loc:@train_input_fn/bucket_queue/bucket/bucket_queue_0"
      }
    }
  }
  attr {
    key: "_output_shapes"
    value {
      list {
        shape {
        }
        shape {
        }
      }
    }
  }
}
node {
  name: "train_input_fn/bucket_queue/bucket/cond/cond/bucket_queue_0_enqueue/Switch_2"
  op: "Switch"
  input: "train_input_fn/Size"
  input: "train_input_fn/bucket_queue/bucket/cond/pred_id"
  attr {
    key: "T"
    value {
      type: DT_INT32
    }
  }
  attr {
    key: "_class"
    value {
      list {
        s: "loc:@train_input_fn/Size"
      }
    }
  }
  attr {
    key: "_output_shapes"
    value {
      list {
        shape {
        }
        shape {
        }
      }
    }
  }
}
node {
  name: "train_input_fn/bucket_queue/bucket/cond/cond/bucket_queue_0_enqueue/Switch_3"
  op: "Switch"
  input: "train_input_fn/bucket_queue/bucket/cond/cond/bucket_queue_0_enqueue/Switch_2:1"
  input: "train_input_fn/bucket_queue/bucket/cond/cond/pred_id"
  attr {
    key: "T"
    value {
      type: DT_INT32
    }
  }
  attr {
    key: "_class"
    value {
      list {
        s: "loc:@train_input_fn/Size"
      }
    }
  }
  attr {
    key: "_output_shapes"
    value {
      list {
        shape {
        }
        shape {
        }
      }
    }
  }
}
node {
  name: "train_input_fn/bucket_queue/bucket/cond/cond/bucket_queue_0_enqueue/Switch_4"
  op: "Switch"
  input: "train_input_fn/concat"
  input: "train_input_fn/bucket_queue/bucket/cond/pred_id"
  attr {
    key: "T"
    value {
      type: DT_STRING
    }
  }
  attr {
    key: "_class"
    value {
      list {
        s: "loc:@train_input_fn/concat"
      }
    }
  }
  attr {
    key: "_output_shapes"
    value {
      list {
        shape {
          dim {
            size: -1
          }
        }
        shape {
          dim {
            size: -1
          }
        }
      }
    }
  }
}
node {
  name: "train_input_fn/bucket_queue/bucket/cond/cond/bucket_queue_0_enqueue/Switch_5"
  op: "Switch"
  input: "train_input_fn/bucket_queue/bucket/cond/cond/bucket_queue_0_enqueue/Switch_4:1"
  input: "train_input_fn/bucket_queue/bucket/cond/cond/pred_id"
  attr {
    key: "T"
    value {
      type: DT_STRING
    }
  }
  attr {
    key: "_class"
    value {
      list {
        s: "loc:@train_input_fn/concat"
      }
    }
  }
  attr {
    key: "_output_shapes"
    value {
      list {
        shape {
          dim {
            size: -1
          }
        }
        shape {
          dim {
            size: -1
          }
        }
      }
    }
  }
}
node {
  name: "train_input_fn/bucket_queue/bucket/cond/cond/bucket_queue_0_enqueue/Switch_6"
  op: "Switch"
  input: "train_input_fn/Size_1"
  input: "train_input_fn/bucket_queue/bucket/cond/pred_id"
  attr {
    key: "T"
    value {
      type: DT_INT32
    }
  }
  attr {
    key: "_class"
    value {
      list {
        s: "loc:@train_input_fn/Size_1"
      }
    }
  }
  attr {
    key: "_output_shapes"
    value {
      list {
        shape {
        }
        shape {
        }
      }
    }
  }
}
node {
  name: "train_input_fn/bucket_queue/bucket/cond/cond/bucket_queue_0_enqueue/Switch_7"
  op: "Switch"
  input: "train_input_fn/bucket_queue/bucket/cond/cond/bucket_queue_0_enqueue/Switch_6:1"
  input: "train_input_fn/bucket_queue/bucket/cond/cond/pred_id"
  attr {
    key: "T"
    value {
      type: DT_INT32
    }
  }
  attr {
    key: "_class"
    value {
      list {
        s: "loc:@train_input_fn/Size_1"
      }
    }
  }
  attr {
    key: "_output_shapes"
    value {
      list {
        shape {
        }
        shape {
        }
      }
    }
  }
}
node {
  name: "train_input_fn/bucket_queue/bucket/cond/cond/bucket_queue_0_enqueue/Switch_8"
  op: "Switch"
  input: "train_input_fn/concat_2"
  input: "train_input_fn/bucket_queue/bucket/cond/pred_id"
  attr {
    key: "T"
    value {
      type: DT_STRING
    }
  }
  attr {
    key: "_class"
    value {
      list {
        s: "loc:@train_input_fn/concat_2"
      }
    }
  }
  attr {
    key: "_output_shapes"
    value {
      list {
        shape {
          dim {
            size: -1
          }
        }
        shape {
          dim {
            size: -1
          }
        }
      }
    }
  }
}
node {
  name: "train_input_fn/bucket_queue/bucket/cond/cond/bucket_queue_0_enqueue/Switch_9"
  op: "Switch"
  input: "train_input_fn/bucket_queue/bucket/cond/cond/bucket_queue_0_enqueue/Switch_8:1"
  input: "train_input_fn/bucket_queue/bucket/cond/cond/pred_id"
  attr {
    key: "T"
    value {
      type: DT_STRING
    }
  }
  attr {
    key: "_class"
    value {
      list {
        s: "loc:@train_input_fn/concat_2"
      }
    }
  }
  attr {
    key: "_output_shapes"
    value {
      list {
        shape {
          dim {
            size: -1
          }
        }
        shape {
          dim {
            size: -1
          }
        }
      }
    }
  }
}
node {
  name: "train_input_fn/bucket_queue/bucket/cond/cond/bucket_queue_0_enqueue"
  op: "QueueEnqueueV2"
  input: "train_input_fn/bucket_queue/bucket/cond/cond/bucket_queue_0_enqueue/Switch_1:1"
  input: "train_input_fn/bucket_queue/bucket/cond/cond/bucket_queue_0_enqueue/Switch_3:1"
  input: "train_input_fn/bucket_queue/bucket/cond/cond/bucket_queue_0_enqueue/Switch_3:1"
  input: "train_input_fn/bucket_queue/bucket/cond/cond/bucket_queue_0_enqueue/Switch_5:1"
  input: "train_input_fn/bucket_queue/bucket/cond/cond/bucket_queue_0_enqueue/Switch_7:1"
  input: "train_input_fn/bucket_queue/bucket/cond/cond/bucket_queue_0_enqueue/Switch_9:1"
  attr {
    key: "Tcomponents"
    value {
      list {
        type: DT_INT32
        type: DT_INT32
        type: DT_STRING
        type: DT_INT32
        type: DT_STRING
      }
    }
  }
  attr {
    key: "timeout_ms"
    value {
      i: -1
    }
  }
}
node {
  name: "train_input_fn/bucket_queue/bucket/cond/cond/control_dependency"
  op: "Identity"
  input: "train_input_fn/bucket_queue/bucket/cond/cond/switch_t"
  input: "^train_input_fn/bucket_queue/bucket/cond/cond/bucket_queue_0_enqueue"
  attr {
    key: "T"
    value {
      type: DT_BOOL
    }
  }
  attr {
    key: "_class"
    value {
      list {
        s: "loc:@train_input_fn/bucket_queue/bucket/cond/cond/switch_t"
      }
    }
  }
  attr {
    key: "_output_shapes"
    value {
      list {
        shape {
        }
      }
    }
  }
}
node {
  name: "train_input_fn/bucket_queue/bucket/cond/cond/NoOp"
  op: "NoOp"
  input: "^train_input_fn/bucket_queue/bucket/cond/cond/switch_f"
}
node {
  name: "train_input_fn/bucket_queue/bucket/cond/cond/control_dependency_1"
  op: "Identity"
  input: "train_input_fn/bucket_queue/bucket/cond/cond/switch_f"
  input: "^train_input_fn/bucket_queue/bucket/cond/cond/NoOp"
  attr {
    key: "T"
    value {
      type: DT_BOOL
    }
  }
  attr {
    key: "_class"
    value {
      list {
        s: "loc:@train_input_fn/bucket_queue/bucket/cond/cond/switch_f"
      }
    }
  }
  attr {
    key: "_output_shapes"
    value {
      list {
        shape {
        }
      }
    }
  }
}
node {
  name: "train_input_fn/bucket_queue/bucket/cond/cond/Merge"
  op: "Merge"
  input: "train_input_fn/bucket_queue/bucket/cond/cond/control_dependency_1"
  input: "train_input_fn/bucket_queue/bucket/cond/cond/control_dependency"
  attr {
    key: "N"
    value {
      i: 2
    }
  }
  attr {
    key: "T"
    value {
      type: DT_BOOL
    }
  }
  attr {
    key: "_output_shapes"
    value {
      list {
        shape {
        }
        shape {
        }
      }
    }
  }
}
node {
  name: "train_input_fn/bucket_queue/bucket/cond/Equal_1/y"
  op: "Const"
  input: "^train_input_fn/bucket_queue/bucket/cond/switch_t"
  attr {
    key: "_output_shapes"
    value {
      list {
        shape {
        }
      }
    }
  }
  attr {
    key: "dtype"
    value {
      type: DT_INT32
    }
  }
  attr {
    key: "value"
    value {
      tensor {
        dtype: DT_INT32
        tensor_shape {
        }
        int_val: 1
      }
    }
  }
}
node {
  name: "train_input_fn/bucket_queue/bucket/cond/Equal_1"
  op: "Equal"
  input: "train_input_fn/bucket_queue/bucket/cond/Equal/Switch:1"
  input: "train_input_fn/bucket_queue/bucket/cond/Equal_1/y"
  attr {
    key: "T"
    value {
      type: DT_INT32
    }
  }
  attr {
    key: "_output_shapes"
    value {
      list {
        shape {
        }
      }
    }
  }
}
node {
  name: "train_input_fn/bucket_queue/bucket/cond/cond_1/Switch"
  op: "Switch"
  input: "train_input_fn/bucket_queue/bucket/cond/Equal_1"
  input: "train_input_fn/bucket_queue/bucket/cond/Equal_1"
  attr {
    key: "T"
    value {
      type: DT_BOOL
    }
  }
  attr {
    key: "_output_shapes"
    value {
      list {
        shape {
        }
        shape {
        }
      }
    }
  }
}
node {
  name: "train_input_fn/bucket_queue/bucket/cond/cond_1/switch_t"
  op: "Identity"
  input: "train_input_fn/bucket_queue/bucket/cond/cond_1/Switch:1"
  attr {
    key: "T"
    value {
      type: DT_BOOL
    }
  }
  attr {
    key: "_output_shapes"
    value {
      list {
        shape {
        }
      }
    }
  }
}
node {
  name: "train_input_fn/bucket_queue/bucket/cond/cond_1/switch_f"
  op: "Identity"
  input: "train_input_fn/bucket_queue/bucket/cond/cond_1/Switch"
  attr {
    key: "T"
    value {
      type: DT_BOOL
    }
  }
  attr {
    key: "_output_shapes"
    value {
      list {
        shape {
        }
      }
    }
  }
}
node {
  name: "train_input_fn/bucket_queue/bucket/cond/cond_1/pred_id"
  op: "Identity"
  input: "train_input_fn/bucket_queue/bucket/cond/Equal_1"
  attr {
    key: "T"
    value {
      type: DT_BOOL
    }
  }
  attr {
    key: "_output_shapes"
    value {
      list {
        shape {
        }
      }
    }
  }
}
node {
  name: "train_input_fn/bucket_queue/bucket/cond/cond_1/bucket_queue_1_enqueue/Switch"
  op: "Switch"
  input: "train_input_fn/bucket_queue/bucket/bucket_queue_1"
  input: "train_input_fn/bucket_queue/bucket/cond/pred_id"
  attr {
    key: "T"
    value {
      type: DT_RESOURCE
    }
  }
  attr {
    key: "_class"
    value {
      list {
        s: "loc:@train_input_fn/bucket_queue/bucket/bucket_queue_1"
      }
    }
  }
  attr {
    key: "_output_shapes"
    value {
      list {
        shape {
        }
        shape {
        }
      }
    }
  }
}
node {
  name: "train_input_fn/bucket_queue/bucket/cond/cond_1/bucket_queue_1_enqueue/Switch_1"
  op: "Switch"
  input: "train_input_fn/bucket_queue/bucket/cond/cond_1/bucket_queue_1_enqueue/Switch:1"
  input: "train_input_fn/bucket_queue/bucket/cond/cond_1/pred_id"
  attr {
    key: "T"
    value {
      type: DT_RESOURCE
    }
  }
  attr {
    key: "_class"
    value {
      list {
        s: "loc:@train_input_fn/bucket_queue/bucket/bucket_queue_1"
      }
    }
  }
  attr {
    key: "_output_shapes"
    value {
      list {
        shape {
        }
        shape {
        }
      }
    }
  }
}
node {
  name: "train_input_fn/bucket_queue/bucket/cond/cond_1/bucket_queue_1_enqueue/Switch_2"
  op: "Switch"
  input: "train_input_fn/bucket_queue/bucket/cond/cond/bucket_queue_0_enqueue/Switch_2:1"
  input: "train_input_fn/bucket_queue/bucket/cond/cond_1/pred_id"
  attr {
    key: "T"
    value {
      type: DT_INT32
    }
  }
  attr {
    key: "_class"
    value {
      list {
        s: "loc:@train_input_fn/Size"
      }
    }
  }
  attr {
    key: "_output_shapes"
    value {
      list {
        shape {
        }
        shape {
        }
      }
    }
  }
}
node {
  name: "train_input_fn/bucket_queue/bucket/cond/cond_1/bucket_queue_1_enqueue/Switch_3"
  op: "Switch"
  input: "train_input_fn/bucket_queue/bucket/cond/cond/bucket_queue_0_enqueue/Switch_4:1"
  input: "train_input_fn/bucket_queue/bucket/cond/cond_1/pred_id"
  attr {
    key: "T"
    value {
      type: DT_STRING
    }
  }
  attr {
    key: "_class"
    value {
      list {
        s: "loc:@train_input_fn/concat"
      }
    }
  }
  attr {
    key: "_output_shapes"
    value {
      list {
        shape {
          dim {
            size: -1
          }
        }
        shape {
          dim {
            size: -1
          }
        }
      }
    }
  }
}
node {
  name: "train_input_fn/bucket_queue/bucket/cond/cond_1/bucket_queue_1_enqueue/Switch_4"
  op: "Switch"
  input: "train_input_fn/bucket_queue/bucket/cond/cond/bucket_queue_0_enqueue/Switch_6:1"
  input: "train_input_fn/bucket_queue/bucket/cond/cond_1/pred_id"
  attr {
    key: "T"
    value {
      type: DT_INT32
    }
  }
  attr {
    key: "_class"
    value {
      list {
        s: "loc:@train_input_fn/Size_1"
      }
    }
  }
  attr {
    key: "_output_shapes"
    value {
      list {
        shape {
        }
        shape {
        }
      }
    }
  }
}
node {
  name: "train_input_fn/bucket_queue/bucket/cond/cond_1/bucket_queue_1_enqueue/Switch_5"
  op: "Switch"
  input: "train_input_fn/bucket_queue/bucket/cond/cond/bucket_queue_0_enqueue/Switch_8:1"
  input: "train_input_fn/bucket_queue/bucket/cond/cond_1/pred_id"
  attr {
    key: "T"
    value {
      type: DT_STRING
    }
  }
  attr {
    key: "_class"
    value {
      list {
        s: "loc:@train_input_fn/concat_2"
      }
    }
  }
  attr {
    key: "_output_shapes"
    value {
      list {
        shape {
          dim {
            size: -1
          }
        }
        shape {
          dim {
            size: -1
          }
        }
      }
    }
  }
}
node {
  name: "train_input_fn/bucket_queue/bucket/cond/cond_1/bucket_queue_1_enqueue"
  op: "QueueEnqueueV2"
  input: "train_input_fn/bucket_queue/bucket/cond/cond_1/bucket_queue_1_enqueue/Switch_1:1"
  input: "train_input_fn/bucket_queue/bucket/cond/cond_1/bucket_queue_1_enqueue/Switch_2:1"
  input: "train_input_fn/bucket_queue/bucket/cond/cond_1/bucket_queue_1_enqueue/Switch_2:1"
  input: "train_input_fn/bucket_queue/bucket/cond/cond_1/bucket_queue_1_enqueue/Switch_3:1"
  input: "train_input_fn/bucket_queue/bucket/cond/cond_1/bucket_queue_1_enqueue/Switch_4:1"
  input: "train_input_fn/bucket_queue/bucket/cond/cond_1/bucket_queue_1_enqueue/Switch_5:1"
  attr {
    key: "Tcomponents"
    value {
      list {
        type: DT_INT32
        type: DT_INT32
        type: DT_STRING
        type: DT_INT32
        type: DT_STRING
      }
    }
  }
  attr {
    key: "timeout_ms"
    value {
      i: -1
    }
  }
}
node {
  name: "train_input_fn/bucket_queue/bucket/cond/cond_1/control_dependency"
  op: "Identity"
  input: "train_input_fn/bucket_queue/bucket/cond/cond_1/switch_t"
  input: "^train_input_fn/bucket_queue/bucket/cond/cond_1/bucket_queue_1_enqueue"
  attr {
    key: "T"
    value {
      type: DT_BOOL
    }
  }
  attr {
    key: "_class"
    value {
      list {
        s: "loc:@train_input_fn/bucket_queue/bucket/cond/cond_1/switch_t"
      }
    }
  }
  attr {
    key: "_output_shapes"
    value {
      list {
        shape {
        }
      }
    }
  }
}
node {
  name: "train_input_fn/bucket_queue/bucket/cond/cond_1/NoOp"
  op: "NoOp"
  input: "^train_input_fn/bucket_queue/bucket/cond/cond_1/switch_f"
}
node {
  name: "train_input_fn/bucket_queue/bucket/cond/cond_1/control_dependency_1"
  op: "Identity"
  input: "train_input_fn/bucket_queue/bucket/cond/cond_1/switch_f"
  input: "^train_input_fn/bucket_queue/bucket/cond/cond_1/NoOp"
  attr {
    key: "T"
    value {
      type: DT_BOOL
    }
  }
  attr {
    key: "_class"
    value {
      list {
        s: "loc:@train_input_fn/bucket_queue/bucket/cond/cond_1/switch_f"
      }
    }
  }
  attr {
    key: "_output_shapes"
    value {
      list {
        shape {
        }
      }
    }
  }
}
node {
  name: "train_input_fn/bucket_queue/bucket/cond/cond_1/Merge"
  op: "Merge"
  input: "train_input_fn/bucket_queue/bucket/cond/cond_1/control_dependency_1"
  input: "train_input_fn/bucket_queue/bucket/cond/cond_1/control_dependency"
  attr {
    key: "N"
    value {
      i: 2
    }
  }
  attr {
    key: "T"
    value {
      type: DT_BOOL
    }
  }
  attr {
    key: "_output_shapes"
    value {
      list {
        shape {
        }
        shape {
        }
      }
    }
  }
}
node {
  name: "train_input_fn/bucket_queue/bucket/cond/Equal_2/y"
  op: "Const"
  input: "^train_input_fn/bucket_queue/bucket/cond/switch_t"
  attr {
    key: "_output_shapes"
    value {
      list {
        shape {
        }
      }
    }
  }
  attr {
    key: "dtype"
    value {
      type: DT_INT32
    }
  }
  attr {
    key: "value"
    value {
      tensor {
        dtype: DT_INT32
        tensor_shape {
        }
        int_val: 2
      }
    }
  }
}
node {
  name: "train_input_fn/bucket_queue/bucket/cond/Equal_2"
  op: "Equal"
  input: "train_input_fn/bucket_queue/bucket/cond/Equal/Switch:1"
  input: "train_input_fn/bucket_queue/bucket/cond/Equal_2/y"
  attr {
    key: "T"
    value {
      type: DT_INT32
    }
  }
  attr {
    key: "_output_shapes"
    value {
      list {
        shape {
        }
      }
    }
  }
}
node {
  name: "train_input_fn/bucket_queue/bucket/cond/cond_2/Switch"
  op: "Switch"
  input: "train_input_fn/bucket_queue/bucket/cond/Equal_2"
  input: "train_input_fn/bucket_queue/bucket/cond/Equal_2"
  attr {
    key: "T"
    value {
      type: DT_BOOL
    }
  }
  attr {
    key: "_output_shapes"
    value {
      list {
        shape {
        }
        shape {
        }
      }
    }
  }
}
node {
  name: "train_input_fn/bucket_queue/bucket/cond/cond_2/switch_t"
  op: "Identity"
  input: "train_input_fn/bucket_queue/bucket/cond/cond_2/Switch:1"
  attr {
    key: "T"
    value {
      type: DT_BOOL
    }
  }
  attr {
    key: "_output_shapes"
    value {
      list {
        shape {
        }
      }
    }
  }
}
node {
  name: "train_input_fn/bucket_queue/bucket/cond/cond_2/switch_f"
  op: "Identity"
  input: "train_input_fn/bucket_queue/bucket/cond/cond_2/Switch"
  attr {
    key: "T"
    value {
      type: DT_BOOL
    }
  }
  attr {
    key: "_output_shapes"
    value {
      list {
        shape {
        }
      }
    }
  }
}
node {
  name: "train_input_fn/bucket_queue/bucket/cond/cond_2/pred_id"
  op: "Identity"
  input: "train_input_fn/bucket_queue/bucket/cond/Equal_2"
  attr {
    key: "T"
    value {
      type: DT_BOOL
    }
  }
  attr {
    key: "_output_shapes"
    value {
      list {
        shape {
        }
      }
    }
  }
}
node {
  name: "train_input_fn/bucket_queue/bucket/cond/cond_2/bucket_queue_2_enqueue/Switch"
  op: "Switch"
  input: "train_input_fn/bucket_queue/bucket/bucket_queue_2"
  input: "train_input_fn/bucket_queue/bucket/cond/pred_id"
  attr {
    key: "T"
    value {
      type: DT_RESOURCE
    }
  }
  attr {
    key: "_class"
    value {
      list {
        s: "loc:@train_input_fn/bucket_queue/bucket/bucket_queue_2"
      }
    }
  }
  attr {
    key: "_output_shapes"
    value {
      list {
        shape {
        }
        shape {
        }
      }
    }
  }
}
node {
  name: "train_input_fn/bucket_queue/bucket/cond/cond_2/bucket_queue_2_enqueue/Switch_1"
  op: "Switch"
  input: "train_input_fn/bucket_queue/bucket/cond/cond_2/bucket_queue_2_enqueue/Switch:1"
  input: "train_input_fn/bucket_queue/bucket/cond/cond_2/pred_id"
  attr {
    key: "T"
    value {
      type: DT_RESOURCE
    }
  }
  attr {
    key: "_class"
    value {
      list {
        s: "loc:@train_input_fn/bucket_queue/bucket/bucket_queue_2"
      }
    }
  }
  attr {
    key: "_output_shapes"
    value {
      list {
        shape {
        }
        shape {
        }
      }
    }
  }
}
node {
  name: "train_input_fn/bucket_queue/bucket/cond/cond_2/bucket_queue_2_enqueue/Switch_2"
  op: "Switch"
  input: "train_input_fn/bucket_queue/bucket/cond/cond/bucket_queue_0_enqueue/Switch_2:1"
  input: "train_input_fn/bucket_queue/bucket/cond/cond_2/pred_id"
  attr {
    key: "T"
    value {
      type: DT_INT32
    }
  }
  attr {
    key: "_class"
    value {
      list {
        s: "loc:@train_input_fn/Size"
      }
    }
  }
  attr {
    key: "_output_shapes"
    value {
      list {
        shape {
        }
        shape {
        }
      }
    }
  }
}
node {
  name: "train_input_fn/bucket_queue/bucket/cond/cond_2/bucket_queue_2_enqueue/Switch_3"
  op: "Switch"
  input: "train_input_fn/bucket_queue/bucket/cond/cond/bucket_queue_0_enqueue/Switch_4:1"
  input: "train_input_fn/bucket_queue/bucket/cond/cond_2/pred_id"
  attr {
    key: "T"
    value {
      type: DT_STRING
    }
  }
  attr {
    key: "_class"
    value {
      list {
        s: "loc:@train_input_fn/concat"
      }
    }
  }
  attr {
    key: "_output_shapes"
    value {
      list {
        shape {
          dim {
            size: -1
          }
        }
        shape {
          dim {
            size: -1
          }
        }
      }
    }
  }
}
node {
  name: "train_input_fn/bucket_queue/bucket/cond/cond_2/bucket_queue_2_enqueue/Switch_4"
  op: "Switch"
  input: "train_input_fn/bucket_queue/bucket/cond/cond/bucket_queue_0_enqueue/Switch_6:1"
  input: "train_input_fn/bucket_queue/bucket/cond/cond_2/pred_id"
  attr {
    key: "T"
    value {
      type: DT_INT32
    }
  }
  attr {
    key: "_class"
    value {
      list {
        s: "loc:@train_input_fn/Size_1"
      }
    }
  }
  attr {
    key: "_output_shapes"
    value {
      list {
        shape {
        }
        shape {
        }
      }
    }
  }
}
node {
  name: "train_input_fn/bucket_queue/bucket/cond/cond_2/bucket_queue_2_enqueue/Switch_5"
  op: "Switch"
  input: "train_input_fn/bucket_queue/bucket/cond/cond/bucket_queue_0_enqueue/Switch_8:1"
  input: "train_input_fn/bucket_queue/bucket/cond/cond_2/pred_id"
  attr {
    key: "T"
    value {
      type: DT_STRING
    }
  }
  attr {
    key: "_class"
    value {
      list {
        s: "loc:@train_input_fn/concat_2"
      }
    }
  }
  attr {
    key: "_output_shapes"
    value {
      list {
        shape {
          dim {
            size: -1
          }
        }
        shape {
          dim {
            size: -1
          }
        }
      }
    }
  }
}
node {
  name: "train_input_fn/bucket_queue/bucket/cond/cond_2/bucket_queue_2_enqueue"
  op: "QueueEnqueueV2"
  input: "train_input_fn/bucket_queue/bucket/cond/cond_2/bucket_queue_2_enqueue/Switch_1:1"
  input: "train_input_fn/bucket_queue/bucket/cond/cond_2/bucket_queue_2_enqueue/Switch_2:1"
  input: "train_input_fn/bucket_queue/bucket/cond/cond_2/bucket_queue_2_enqueue/Switch_2:1"
  input: "train_input_fn/bucket_queue/bucket/cond/cond_2/bucket_queue_2_enqueue/Switch_3:1"
  input: "train_input_fn/bucket_queue/bucket/cond/cond_2/bucket_queue_2_enqueue/Switch_4:1"
  input: "train_input_fn/bucket_queue/bucket/cond/cond_2/bucket_queue_2_enqueue/Switch_5:1"
  attr {
    key: "Tcomponents"
    value {
      list {
        type: DT_INT32
        type: DT_INT32
        type: DT_STRING
        type: DT_INT32
        type: DT_STRING
      }
    }
  }
  attr {
    key: "timeout_ms"
    value {
      i: -1
    }
  }
}
node {
  name: "train_input_fn/bucket_queue/bucket/cond/cond_2/control_dependency"
  op: "Identity"
  input: "train_input_fn/bucket_queue/bucket/cond/cond_2/switch_t"
  input: "^train_input_fn/bucket_queue/bucket/cond/cond_2/bucket_queue_2_enqueue"
  attr {
    key: "T"
    value {
      type: DT_BOOL
    }
  }
  attr {
    key: "_class"
    value {
      list {
        s: "loc:@train_input_fn/bucket_queue/bucket/cond/cond_2/switch_t"
      }
    }
  }
  attr {
    key: "_output_shapes"
    value {
      list {
        shape {
        }
      }
    }
  }
}
node {
  name: "train_input_fn/bucket_queue/bucket/cond/cond_2/NoOp"
  op: "NoOp"
  input: "^train_input_fn/bucket_queue/bucket/cond/cond_2/switch_f"
}
node {
  name: "train_input_fn/bucket_queue/bucket/cond/cond_2/control_dependency_1"
  op: "Identity"
  input: "train_input_fn/bucket_queue/bucket/cond/cond_2/switch_f"
  input: "^train_input_fn/bucket_queue/bucket/cond/cond_2/NoOp"
  attr {
    key: "T"
    value {
      type: DT_BOOL
    }
  }
  attr {
    key: "_class"
    value {
      list {
        s: "loc:@train_input_fn/bucket_queue/bucket/cond/cond_2/switch_f"
      }
    }
  }
  attr {
    key: "_output_shapes"
    value {
      list {
        shape {
        }
      }
    }
  }
}
node {
  name: "train_input_fn/bucket_queue/bucket/cond/cond_2/Merge"
  op: "Merge"
  input: "train_input_fn/bucket_queue/bucket/cond/cond_2/control_dependency_1"
  input: "train_input_fn/bucket_queue/bucket/cond/cond_2/control_dependency"
  attr {
    key: "N"
    value {
      i: 2
    }
  }
  attr {
    key: "T"
    value {
      type: DT_BOOL
    }
  }
  attr {
    key: "_output_shapes"
    value {
      list {
        shape {
        }
        shape {
        }
      }
    }
  }
}
node {
  name: "train_input_fn/bucket_queue/bucket/cond/Equal_3/y"
  op: "Const"
  input: "^train_input_fn/bucket_queue/bucket/cond/switch_t"
  attr {
    key: "_output_shapes"
    value {
      list {
        shape {
        }
      }
    }
  }
  attr {
    key: "dtype"
    value {
      type: DT_INT32
    }
  }
  attr {
    key: "value"
    value {
      tensor {
        dtype: DT_INT32
        tensor_shape {
        }
        int_val: 3
      }
    }
  }
}
node {
  name: "train_input_fn/bucket_queue/bucket/cond/Equal_3"
  op: "Equal"
  input: "train_input_fn/bucket_queue/bucket/cond/Equal/Switch:1"
  input: "train_input_fn/bucket_queue/bucket/cond/Equal_3/y"
  attr {
    key: "T"
    value {
      type: DT_INT32
    }
  }
  attr {
    key: "_output_shapes"
    value {
      list {
        shape {
        }
      }
    }
  }
}
node {
  name: "train_input_fn/bucket_queue/bucket/cond/cond_3/Switch"
  op: "Switch"
  input: "train_input_fn/bucket_queue/bucket/cond/Equal_3"
  input: "train_input_fn/bucket_queue/bucket/cond/Equal_3"
  attr {
    key: "T"
    value {
      type: DT_BOOL
    }
  }
  attr {
    key: "_output_shapes"
    value {
      list {
        shape {
        }
        shape {
        }
      }
    }
  }
}
node {
  name: "train_input_fn/bucket_queue/bucket/cond/cond_3/switch_t"
  op: "Identity"
  input: "train_input_fn/bucket_queue/bucket/cond/cond_3/Switch:1"
  attr {
    key: "T"
    value {
      type: DT_BOOL
    }
  }
  attr {
    key: "_output_shapes"
    value {
      list {
        shape {
        }
      }
    }
  }
}
node {
  name: "train_input_fn/bucket_queue/bucket/cond/cond_3/switch_f"
  op: "Identity"
  input: "train_input_fn/bucket_queue/bucket/cond/cond_3/Switch"
  attr {
    key: "T"
    value {
      type: DT_BOOL
    }
  }
  attr {
    key: "_output_shapes"
    value {
      list {
        shape {
        }
      }
    }
  }
}
node {
  name: "train_input_fn/bucket_queue/bucket/cond/cond_3/pred_id"
  op: "Identity"
  input: "train_input_fn/bucket_queue/bucket/cond/Equal_3"
  attr {
    key: "T"
    value {
      type: DT_BOOL
    }
  }
  attr {
    key: "_output_shapes"
    value {
      list {
        shape {
        }
      }
    }
  }
}
node {
  name: "train_input_fn/bucket_queue/bucket/cond/cond_3/bucket_queue_3_enqueue/Switch"
  op: "Switch"
  input: "train_input_fn/bucket_queue/bucket/bucket_queue_3"
  input: "train_input_fn/bucket_queue/bucket/cond/pred_id"
  attr {
    key: "T"
    value {
      type: DT_RESOURCE
    }
  }
  attr {
    key: "_class"
    value {
      list {
        s: "loc:@train_input_fn/bucket_queue/bucket/bucket_queue_3"
      }
    }
  }
  attr {
    key: "_output_shapes"
    value {
      list {
        shape {
        }
        shape {
        }
      }
    }
  }
}
node {
  name: "train_input_fn/bucket_queue/bucket/cond/cond_3/bucket_queue_3_enqueue/Switch_1"
  op: "Switch"
  input: "train_input_fn/bucket_queue/bucket/cond/cond_3/bucket_queue_3_enqueue/Switch:1"
  input: "train_input_fn/bucket_queue/bucket/cond/cond_3/pred_id"
  attr {
    key: "T"
    value {
      type: DT_RESOURCE
    }
  }
  attr {
    key: "_class"
    value {
      list {
        s: "loc:@train_input_fn/bucket_queue/bucket/bucket_queue_3"
      }
    }
  }
  attr {
    key: "_output_shapes"
    value {
      list {
        shape {
        }
        shape {
        }
      }
    }
  }
}
node {
  name: "train_input_fn/bucket_queue/bucket/cond/cond_3/bucket_queue_3_enqueue/Switch_2"
  op: "Switch"
  input: "train_input_fn/bucket_queue/bucket/cond/cond/bucket_queue_0_enqueue/Switch_2:1"
  input: "train_input_fn/bucket_queue/bucket/cond/cond_3/pred_id"
  attr {
    key: "T"
    value {
      type: DT_INT32
    }
  }
  attr {
    key: "_class"
    value {
      list {
        s: "loc:@train_input_fn/Size"
      }
    }
  }
  attr {
    key: "_output_shapes"
    value {
      list {
        shape {
        }
        shape {
        }
      }
    }
  }
}
node {
  name: "train_input_fn/bucket_queue/bucket/cond/cond_3/bucket_queue_3_enqueue/Switch_3"
  op: "Switch"
  input: "train_input_fn/bucket_queue/bucket/cond/cond/bucket_queue_0_enqueue/Switch_4:1"
  input: "train_input_fn/bucket_queue/bucket/cond/cond_3/pred_id"
  attr {
    key: "T"
    value {
      type: DT_STRING
    }
  }
  attr {
    key: "_class"
    value {
      list {
        s: "loc:@train_input_fn/concat"
      }
    }
  }
  attr {
    key: "_output_shapes"
    value {
      list {
        shape {
          dim {
            size: -1
          }
        }
        shape {
          dim {
            size: -1
          }
        }
      }
    }
  }
}
node {
  name: "train_input_fn/bucket_queue/bucket/cond/cond_3/bucket_queue_3_enqueue/Switch_4"
  op: "Switch"
  input: "train_input_fn/bucket_queue/bucket/cond/cond/bucket_queue_0_enqueue/Switch_6:1"
  input: "train_input_fn/bucket_queue/bucket/cond/cond_3/pred_id"
  attr {
    key: "T"
    value {
      type: DT_INT32
    }
  }
  attr {
    key: "_class"
    value {
      list {
        s: "loc:@train_input_fn/Size_1"
      }
    }
  }
  attr {
    key: "_output_shapes"
    value {
      list {
        shape {
        }
        shape {
        }
      }
    }
  }
}
node {
  name: "train_input_fn/bucket_queue/bucket/cond/cond_3/bucket_queue_3_enqueue/Switch_5"
  op: "Switch"
  input: "train_input_fn/bucket_queue/bucket/cond/cond/bucket_queue_0_enqueue/Switch_8:1"
  input: "train_input_fn/bucket_queue/bucket/cond/cond_3/pred_id"
  attr {
    key: "T"
    value {
      type: DT_STRING
    }
  }
  attr {
    key: "_class"
    value {
      list {
        s: "loc:@train_input_fn/concat_2"
      }
    }
  }
  attr {
    key: "_output_shapes"
    value {
      list {
        shape {
          dim {
            size: -1
          }
        }
        shape {
          dim {
            size: -1
          }
        }
      }
    }
  }
}
node {
  name: "train_input_fn/bucket_queue/bucket/cond/cond_3/bucket_queue_3_enqueue"
  op: "QueueEnqueueV2"
  input: "train_input_fn/bucket_queue/bucket/cond/cond_3/bucket_queue_3_enqueue/Switch_1:1"
  input: "train_input_fn/bucket_queue/bucket/cond/cond_3/bucket_queue_3_enqueue/Switch_2:1"
  input: "train_input_fn/bucket_queue/bucket/cond/cond_3/bucket_queue_3_enqueue/Switch_2:1"
  input: "train_input_fn/bucket_queue/bucket/cond/cond_3/bucket_queue_3_enqueue/Switch_3:1"
  input: "train_input_fn/bucket_queue/bucket/cond/cond_3/bucket_queue_3_enqueue/Switch_4:1"
  input: "train_input_fn/bucket_queue/bucket/cond/cond_3/bucket_queue_3_enqueue/Switch_5:1"
  attr {
    key: "Tcomponents"
    value {
      list {
        type: DT_INT32
        type: DT_INT32
        type: DT_STRING
        type: DT_INT32
        type: DT_STRING
      }
    }
  }
  attr {
    key: "timeout_ms"
    value {
      i: -1
    }
  }
}
node {
  name: "train_input_fn/bucket_queue/bucket/cond/cond_3/control_dependency"
  op: "Identity"
  input: "train_input_fn/bucket_queue/bucket/cond/cond_3/switch_t"
  input: "^train_input_fn/bucket_queue/bucket/cond/cond_3/bucket_queue_3_enqueue"
  attr {
    key: "T"
    value {
      type: DT_BOOL
    }
  }
  attr {
    key: "_class"
    value {
      list {
        s: "loc:@train_input_fn/bucket_queue/bucket/cond/cond_3/switch_t"
      }
    }
  }
  attr {
    key: "_output_shapes"
    value {
      list {
        shape {
        }
      }
    }
  }
}
node {
  name: "train_input_fn/bucket_queue/bucket/cond/cond_3/NoOp"
  op: "NoOp"
  input: "^train_input_fn/bucket_queue/bucket/cond/cond_3/switch_f"
}
node {
  name: "train_input_fn/bucket_queue/bucket/cond/cond_3/control_dependency_1"
  op: "Identity"
  input: "train_input_fn/bucket_queue/bucket/cond/cond_3/switch_f"
  input: "^train_input_fn/bucket_queue/bucket/cond/cond_3/NoOp"
  attr {
    key: "T"
    value {
      type: DT_BOOL
    }
  }
  attr {
    key: "_class"
    value {
      list {
        s: "loc:@train_input_fn/bucket_queue/bucket/cond/cond_3/switch_f"
      }
    }
  }
  attr {
    key: "_output_shapes"
    value {
      list {
        shape {
        }
      }
    }
  }
}
node {
  name: "train_input_fn/bucket_queue/bucket/cond/cond_3/Merge"
  op: "Merge"
  input: "train_input_fn/bucket_queue/bucket/cond/cond_3/control_dependency_1"
  input: "train_input_fn/bucket_queue/bucket/cond/cond_3/control_dependency"
  attr {
    key: "N"
    value {
      i: 2
    }
  }
  attr {
    key: "T"
    value {
      type: DT_BOOL
    }
  }
  attr {
    key: "_output_shapes"
    value {
      list {
        shape {
        }
        shape {
        }
      }
    }
  }
}
node {
  name: "train_input_fn/bucket_queue/bucket/cond/Equal_4/y"
  op: "Const"
  input: "^train_input_fn/bucket_queue/bucket/cond/switch_t"
  attr {
    key: "_output_shapes"
    value {
      list {
        shape {
        }
      }
    }
  }
  attr {
    key: "dtype"
    value {
      type: DT_INT32
    }
  }
  attr {
    key: "value"
    value {
      tensor {
        dtype: DT_INT32
        tensor_shape {
        }
        int_val: 4
      }
    }
  }
}
node {
  name: "train_input_fn/bucket_queue/bucket/cond/Equal_4"
  op: "Equal"
  input: "train_input_fn/bucket_queue/bucket/cond/Equal/Switch:1"
  input: "train_input_fn/bucket_queue/bucket/cond/Equal_4/y"
  attr {
    key: "T"
    value {
      type: DT_INT32
    }
  }
  attr {
    key: "_output_shapes"
    value {
      list {
        shape {
        }
      }
    }
  }
}
node {
  name: "train_input_fn/bucket_queue/bucket/cond/cond_4/Switch"
  op: "Switch"
  input: "train_input_fn/bucket_queue/bucket/cond/Equal_4"
  input: "train_input_fn/bucket_queue/bucket/cond/Equal_4"
  attr {
    key: "T"
    value {
      type: DT_BOOL
    }
  }
  attr {
    key: "_output_shapes"
    value {
      list {
        shape {
        }
        shape {
        }
      }
    }
  }
}
node {
  name: "train_input_fn/bucket_queue/bucket/cond/cond_4/switch_t"
  op: "Identity"
  input: "train_input_fn/bucket_queue/bucket/cond/cond_4/Switch:1"
  attr {
    key: "T"
    value {
      type: DT_BOOL
    }
  }
  attr {
    key: "_output_shapes"
    value {
      list {
        shape {
        }
      }
    }
  }
}
node {
  name: "train_input_fn/bucket_queue/bucket/cond/cond_4/switch_f"
  op: "Identity"
  input: "train_input_fn/bucket_queue/bucket/cond/cond_4/Switch"
  attr {
    key: "T"
    value {
      type: DT_BOOL
    }
  }
  attr {
    key: "_output_shapes"
    value {
      list {
        shape {
        }
      }
    }
  }
}
node {
  name: "train_input_fn/bucket_queue/bucket/cond/cond_4/pred_id"
  op: "Identity"
  input: "train_input_fn/bucket_queue/bucket/cond/Equal_4"
  attr {
    key: "T"
    value {
      type: DT_BOOL
    }
  }
  attr {
    key: "_output_shapes"
    value {
      list {
        shape {
        }
      }
    }
  }
}
node {
  name: "train_input_fn/bucket_queue/bucket/cond/cond_4/bucket_queue_4_enqueue/Switch"
  op: "Switch"
  input: "train_input_fn/bucket_queue/bucket/bucket_queue_4"
  input: "train_input_fn/bucket_queue/bucket/cond/pred_id"
  attr {
    key: "T"
    value {
      type: DT_RESOURCE
    }
  }
  attr {
    key: "_class"
    value {
      list {
        s: "loc:@train_input_fn/bucket_queue/bucket/bucket_queue_4"
      }
    }
  }
  attr {
    key: "_output_shapes"
    value {
      list {
        shape {
        }
        shape {
        }
      }
    }
  }
}
node {
  name: "train_input_fn/bucket_queue/bucket/cond/cond_4/bucket_queue_4_enqueue/Switch_1"
  op: "Switch"
  input: "train_input_fn/bucket_queue/bucket/cond/cond_4/bucket_queue_4_enqueue/Switch:1"
  input: "train_input_fn/bucket_queue/bucket/cond/cond_4/pred_id"
  attr {
    key: "T"
    value {
      type: DT_RESOURCE
    }
  }
  attr {
    key: "_class"
    value {
      list {
        s: "loc:@train_input_fn/bucket_queue/bucket/bucket_queue_4"
      }
    }
  }
  attr {
    key: "_output_shapes"
    value {
      list {
        shape {
        }
        shape {
        }
      }
    }
  }
}
node {
  name: "train_input_fn/bucket_queue/bucket/cond/cond_4/bucket_queue_4_enqueue/Switch_2"
  op: "Switch"
  input: "train_input_fn/bucket_queue/bucket/cond/cond/bucket_queue_0_enqueue/Switch_2:1"
  input: "train_input_fn/bucket_queue/bucket/cond/cond_4/pred_id"
  attr {
    key: "T"
    value {
      type: DT_INT32
    }
  }
  attr {
    key: "_class"
    value {
      list {
        s: "loc:@train_input_fn/Size"
      }
    }
  }
  attr {
    key: "_output_shapes"
    value {
      list {
        shape {
        }
        shape {
        }
      }
    }
  }
}
node {
  name: "train_input_fn/bucket_queue/bucket/cond/cond_4/bucket_queue_4_enqueue/Switch_3"
  op: "Switch"
  input: "train_input_fn/bucket_queue/bucket/cond/cond/bucket_queue_0_enqueue/Switch_4:1"
  input: "train_input_fn/bucket_queue/bucket/cond/cond_4/pred_id"
  attr {
    key: "T"
    value {
      type: DT_STRING
    }
  }
  attr {
    key: "_class"
    value {
      list {
        s: "loc:@train_input_fn/concat"
      }
    }
  }
  attr {
    key: "_output_shapes"
    value {
      list {
        shape {
          dim {
            size: -1
          }
        }
        shape {
          dim {
            size: -1
          }
        }
      }
    }
  }
}
node {
  name: "train_input_fn/bucket_queue/bucket/cond/cond_4/bucket_queue_4_enqueue/Switch_4"
  op: "Switch"
  input: "train_input_fn/bucket_queue/bucket/cond/cond/bucket_queue_0_enqueue/Switch_6:1"
  input: "train_input_fn/bucket_queue/bucket/cond/cond_4/pred_id"
  attr {
    key: "T"
    value {
      type: DT_INT32
    }
  }
  attr {
    key: "_class"
    value {
      list {
        s: "loc:@train_input_fn/Size_1"
      }
    }
  }
  attr {
    key: "_output_shapes"
    value {
      list {
        shape {
        }
        shape {
        }
      }
    }
  }
}
node {
  name: "train_input_fn/bucket_queue/bucket/cond/cond_4/bucket_queue_4_enqueue/Switch_5"
  op: "Switch"
  input: "train_input_fn/bucket_queue/bucket/cond/cond/bucket_queue_0_enqueue/Switch_8:1"
  input: "train_input_fn/bucket_queue/bucket/cond/cond_4/pred_id"
  attr {
    key: "T"
    value {
      type: DT_STRING
    }
  }
  attr {
    key: "_class"
    value {
      list {
        s: "loc:@train_input_fn/concat_2"
      }
    }
  }
  attr {
    key: "_output_shapes"
    value {
      list {
        shape {
          dim {
            size: -1
          }
        }
        shape {
          dim {
            size: -1
          }
        }
      }
    }
  }
}
node {
  name: "train_input_fn/bucket_queue/bucket/cond/cond_4/bucket_queue_4_enqueue"
  op: "QueueEnqueueV2"
  input: "train_input_fn/bucket_queue/bucket/cond/cond_4/bucket_queue_4_enqueue/Switch_1:1"
  input: "train_input_fn/bucket_queue/bucket/cond/cond_4/bucket_queue_4_enqueue/Switch_2:1"
  input: "train_input_fn/bucket_queue/bucket/cond/cond_4/bucket_queue_4_enqueue/Switch_2:1"
  input: "train_input_fn/bucket_queue/bucket/cond/cond_4/bucket_queue_4_enqueue/Switch_3:1"
  input: "train_input_fn/bucket_queue/bucket/cond/cond_4/bucket_queue_4_enqueue/Switch_4:1"
  input: "train_input_fn/bucket_queue/bucket/cond/cond_4/bucket_queue_4_enqueue/Switch_5:1"
  attr {
    key: "Tcomponents"
    value {
      list {
        type: DT_INT32
        type: DT_INT32
        type: DT_STRING
        type: DT_INT32
        type: DT_STRING
      }
    }
  }
  attr {
    key: "timeout_ms"
    value {
      i: -1
    }
  }
}
node {
  name: "train_input_fn/bucket_queue/bucket/cond/cond_4/control_dependency"
  op: "Identity"
  input: "train_input_fn/bucket_queue/bucket/cond/cond_4/switch_t"
  input: "^train_input_fn/bucket_queue/bucket/cond/cond_4/bucket_queue_4_enqueue"
  attr {
    key: "T"
    value {
      type: DT_BOOL
    }
  }
  attr {
    key: "_class"
    value {
      list {
        s: "loc:@train_input_fn/bucket_queue/bucket/cond/cond_4/switch_t"
      }
    }
  }
  attr {
    key: "_output_shapes"
    value {
      list {
        shape {
        }
      }
    }
  }
}
node {
  name: "train_input_fn/bucket_queue/bucket/cond/cond_4/NoOp"
  op: "NoOp"
  input: "^train_input_fn/bucket_queue/bucket/cond/cond_4/switch_f"
}
node {
  name: "train_input_fn/bucket_queue/bucket/cond/cond_4/control_dependency_1"
  op: "Identity"
  input: "train_input_fn/bucket_queue/bucket/cond/cond_4/switch_f"
  input: "^train_input_fn/bucket_queue/bucket/cond/cond_4/NoOp"
  attr {
    key: "T"
    value {
      type: DT_BOOL
    }
  }
  attr {
    key: "_class"
    value {
      list {
        s: "loc:@train_input_fn/bucket_queue/bucket/cond/cond_4/switch_f"
      }
    }
  }
  attr {
    key: "_output_shapes"
    value {
      list {
        shape {
        }
      }
    }
  }
}
node {
  name: "train_input_fn/bucket_queue/bucket/cond/cond_4/Merge"
  op: "Merge"
  input: "train_input_fn/bucket_queue/bucket/cond/cond_4/control_dependency_1"
  input: "train_input_fn/bucket_queue/bucket/cond/cond_4/control_dependency"
  attr {
    key: "N"
    value {
      i: 2
    }
  }
  attr {
    key: "T"
    value {
      type: DT_BOOL
    }
  }
  attr {
    key: "_output_shapes"
    value {
      list {
        shape {
        }
        shape {
        }
      }
    }
  }
}
node {
  name: "train_input_fn/bucket_queue/bucket/cond/group_enqueues"
  op: "NoOp"
  input: "^train_input_fn/bucket_queue/bucket/cond/cond/Merge"
  input: "^train_input_fn/bucket_queue/bucket/cond/cond_1/Merge"
  input: "^train_input_fn/bucket_queue/bucket/cond/cond_2/Merge"
  input: "^train_input_fn/bucket_queue/bucket/cond/cond_3/Merge"
  input: "^train_input_fn/bucket_queue/bucket/cond/cond_4/Merge"
  input: "^train_input_fn/bucket_queue/bucket/cond/switch_t"
}
node {
  name: "train_input_fn/bucket_queue/bucket/cond/control_dependency"
  op: "Identity"
  input: "train_input_fn/bucket_queue/bucket/cond/switch_t"
  input: "^train_input_fn/bucket_queue/bucket/cond/group_enqueues"
  attr {
    key: "T"
    value {
      type: DT_BOOL
    }
  }
  attr {
    key: "_class"
    value {
      list {
        s: "loc:@train_input_fn/bucket_queue/bucket/cond/switch_t"
      }
    }
  }
  attr {
    key: "_output_shapes"
    value {
      list {
        shape {
        }
      }
    }
  }
}
node {
  name: "train_input_fn/bucket_queue/bucket/cond/NoOp"
  op: "NoOp"
  input: "^train_input_fn/bucket_queue/bucket/cond/switch_f"
}
node {
  name: "train_input_fn/bucket_queue/bucket/cond/control_dependency_1"
  op: "Identity"
  input: "train_input_fn/bucket_queue/bucket/cond/switch_f"
  input: "^train_input_fn/bucket_queue/bucket/cond/NoOp"
  attr {
    key: "T"
    value {
      type: DT_BOOL
    }
  }
  attr {
    key: "_class"
    value {
      list {
        s: "loc:@train_input_fn/bucket_queue/bucket/cond/switch_f"
      }
    }
  }
  attr {
    key: "_output_shapes"
    value {
      list {
        shape {
        }
      }
    }
  }
}
node {
  name: "train_input_fn/bucket_queue/bucket/cond/Merge"
  op: "Merge"
  input: "train_input_fn/bucket_queue/bucket/cond/control_dependency_1"
  input: "train_input_fn/bucket_queue/bucket/cond/control_dependency"
  attr {
    key: "N"
    value {
      i: 2
    }
  }
  attr {
    key: "T"
    value {
      type: DT_BOOL
    }
  }
  attr {
    key: "_output_shapes"
    value {
      list {
        shape {
        }
        shape {
        }
      }
    }
  }
}
node {
  name: "train_input_fn/bucket_queue/bucket/Const"
  op: "Const"
  attr {
    key: "_output_shapes"
    value {
      list {
        shape {
        }
      }
    }
  }
  attr {
    key: "dtype"
    value {
      type: DT_INT32
    }
  }
  attr {
    key: "value"
    value {
      tensor {
        dtype: DT_INT32
        tensor_shape {
        }
        int_val: 0
      }
    }
  }
}
node {
  name: "train_input_fn/bucket_queue/bucket/read_bucket_0/n"
  op: "Const"
  attr {
    key: "_output_shapes"
    value {
      list {
        shape {
        }
      }
    }
  }
  attr {
    key: "dtype"
    value {
      type: DT_INT32
    }
  }
  attr {
    key: "value"
    value {
      tensor {
        dtype: DT_INT32
        tensor_shape {
        }
        int_val: 32
      }
    }
  }
}
node {
  name: "train_input_fn/bucket_queue/bucket/read_bucket_0"
  op: "QueueDequeueManyV2"
  input: "train_input_fn/bucket_queue/bucket/bucket_queue_0"
  input: "train_input_fn/bucket_queue/bucket/read_bucket_0/n"
  attr {
    key: "_output_shapes"
    value {
      list {
        shape {
          dim {
            size: 32
          }
        }
        shape {
          dim {
            size: 32
          }
        }
        shape {
          dim {
            size: 32
          }
          dim {
            size: -1
          }
        }
        shape {
          dim {
            size: 32
          }
        }
        shape {
          dim {
            size: 32
          }
          dim {
            size: -1
          }
        }
      }
    }
  }
  attr {
    key: "component_types"
    value {
      list {
        type: DT_INT32
        type: DT_INT32
        type: DT_STRING
        type: DT_INT32
        type: DT_STRING
      }
    }
  }
  attr {
    key: "timeout_ms"
    value {
      i: -1
    }
  }
}
node {
  name: "train_input_fn/bucket_queue/bucket/enqueue_from_bucket_0"
  op: "QueueEnqueueV2"
  input: "train_input_fn/bucket_queue/bucket/top_queue"
  input: "train_input_fn/bucket_queue/bucket/Const"
  input: "train_input_fn/bucket_queue/bucket/read_bucket_0"
  input: "train_input_fn/bucket_queue/bucket/read_bucket_0:1"
  input: "train_input_fn/bucket_queue/bucket/read_bucket_0:2"
  input: "train_input_fn/bucket_queue/bucket/read_bucket_0:3"
  input: "train_input_fn/bucket_queue/bucket/read_bucket_0:4"
  attr {
    key: "Tcomponents"
    value {
      list {
        type: DT_INT32
        type: DT_INT32
        type: DT_INT32
        type: DT_STRING
        type: DT_INT32
        type: DT_STRING
      }
    }
  }
  attr {
    key: "timeout_ms"
    value {
      i: -1
    }
  }
}
node {
  name: "train_input_fn/bucket_queue/bucket/Const_1"
  op: "Const"
  attr {
    key: "_output_shapes"
    value {
      list {
        shape {
        }
      }
    }
  }
  attr {
    key: "dtype"
    value {
      type: DT_INT32
    }
  }
  attr {
    key: "value"
    value {
      tensor {
        dtype: DT_INT32
        tensor_shape {
        }
        int_val: 1
      }
    }
  }
}
node {
  name: "train_input_fn/bucket_queue/bucket/read_bucket_1/n"
  op: "Const"
  attr {
    key: "_output_shapes"
    value {
      list {
        shape {
        }
      }
    }
  }
  attr {
    key: "dtype"
    value {
      type: DT_INT32
    }
  }
  attr {
    key: "value"
    value {
      tensor {
        dtype: DT_INT32
        tensor_shape {
        }
        int_val: 32
      }
    }
  }
}
node {
  name: "train_input_fn/bucket_queue/bucket/read_bucket_1"
  op: "QueueDequeueManyV2"
  input: "train_input_fn/bucket_queue/bucket/bucket_queue_1"
  input: "train_input_fn/bucket_queue/bucket/read_bucket_1/n"
  attr {
    key: "_output_shapes"
    value {
      list {
        shape {
          dim {
            size: 32
          }
        }
        shape {
          dim {
            size: 32
          }
        }
        shape {
          dim {
            size: 32
          }
          dim {
            size: -1
          }
        }
        shape {
          dim {
            size: 32
          }
        }
        shape {
          dim {
            size: 32
          }
          dim {
            size: -1
          }
        }
      }
    }
  }
  attr {
    key: "component_types"
    value {
      list {
        type: DT_INT32
        type: DT_INT32
        type: DT_STRING
        type: DT_INT32
        type: DT_STRING
      }
    }
  }
  attr {
    key: "timeout_ms"
    value {
      i: -1
    }
  }
}
node {
  name: "train_input_fn/bucket_queue/bucket/enqueue_from_bucket_1"
  op: "QueueEnqueueV2"
  input: "train_input_fn/bucket_queue/bucket/top_queue"
  input: "train_input_fn/bucket_queue/bucket/Const_1"
  input: "train_input_fn/bucket_queue/bucket/read_bucket_1"
  input: "train_input_fn/bucket_queue/bucket/read_bucket_1:1"
  input: "train_input_fn/bucket_queue/bucket/read_bucket_1:2"
  input: "train_input_fn/bucket_queue/bucket/read_bucket_1:3"
  input: "train_input_fn/bucket_queue/bucket/read_bucket_1:4"
  attr {
    key: "Tcomponents"
    value {
      list {
        type: DT_INT32
        type: DT_INT32
        type: DT_INT32
        type: DT_STRING
        type: DT_INT32
        type: DT_STRING
      }
    }
  }
  attr {
    key: "timeout_ms"
    value {
      i: -1
    }
  }
}
node {
  name: "train_input_fn/bucket_queue/bucket/Const_2"
  op: "Const"
  attr {
    key: "_output_shapes"
    value {
      list {
        shape {
        }
      }
    }
  }
  attr {
    key: "dtype"
    value {
      type: DT_INT32
    }
  }
  attr {
    key: "value"
    value {
      tensor {
        dtype: DT_INT32
        tensor_shape {
        }
        int_val: 2
      }
    }
  }
}
node {
  name: "train_input_fn/bucket_queue/bucket/read_bucket_2/n"
  op: "Const"
  attr {
    key: "_output_shapes"
    value {
      list {
        shape {
        }
      }
    }
  }
  attr {
    key: "dtype"
    value {
      type: DT_INT32
    }
  }
  attr {
    key: "value"
    value {
      tensor {
        dtype: DT_INT32
        tensor_shape {
        }
        int_val: 32
      }
    }
  }
}
node {
  name: "train_input_fn/bucket_queue/bucket/read_bucket_2"
  op: "QueueDequeueManyV2"
  input: "train_input_fn/bucket_queue/bucket/bucket_queue_2"
  input: "train_input_fn/bucket_queue/bucket/read_bucket_2/n"
  attr {
    key: "_output_shapes"
    value {
      list {
        shape {
          dim {
            size: 32
          }
        }
        shape {
          dim {
            size: 32
          }
        }
        shape {
          dim {
            size: 32
          }
          dim {
            size: -1
          }
        }
        shape {
          dim {
            size: 32
          }
        }
        shape {
          dim {
            size: 32
          }
          dim {
            size: -1
          }
        }
      }
    }
  }
  attr {
    key: "component_types"
    value {
      list {
        type: DT_INT32
        type: DT_INT32
        type: DT_STRING
        type: DT_INT32
        type: DT_STRING
      }
    }
  }
  attr {
    key: "timeout_ms"
    value {
      i: -1
    }
  }
}
node {
  name: "train_input_fn/bucket_queue/bucket/enqueue_from_bucket_2"
  op: "QueueEnqueueV2"
  input: "train_input_fn/bucket_queue/bucket/top_queue"
  input: "train_input_fn/bucket_queue/bucket/Const_2"
  input: "train_input_fn/bucket_queue/bucket/read_bucket_2"
  input: "train_input_fn/bucket_queue/bucket/read_bucket_2:1"
  input: "train_input_fn/bucket_queue/bucket/read_bucket_2:2"
  input: "train_input_fn/bucket_queue/bucket/read_bucket_2:3"
  input: "train_input_fn/bucket_queue/bucket/read_bucket_2:4"
  attr {
    key: "Tcomponents"
    value {
      list {
        type: DT_INT32
        type: DT_INT32
        type: DT_INT32
        type: DT_STRING
        type: DT_INT32
        type: DT_STRING
      }
    }
  }
  attr {
    key: "timeout_ms"
    value {
      i: -1
    }
  }
}
node {
  name: "train_input_fn/bucket_queue/bucket/Const_3"
  op: "Const"
  attr {
    key: "_output_shapes"
    value {
      list {
        shape {
        }
      }
    }
  }
  attr {
    key: "dtype"
    value {
      type: DT_INT32
    }
  }
  attr {
    key: "value"
    value {
      tensor {
        dtype: DT_INT32
        tensor_shape {
        }
        int_val: 3
      }
    }
  }
}
node {
  name: "train_input_fn/bucket_queue/bucket/read_bucket_3/n"
  op: "Const"
  attr {
    key: "_output_shapes"
    value {
      list {
        shape {
        }
      }
    }
  }
  attr {
    key: "dtype"
    value {
      type: DT_INT32
    }
  }
  attr {
    key: "value"
    value {
      tensor {
        dtype: DT_INT32
        tensor_shape {
        }
        int_val: 32
      }
    }
  }
}
node {
  name: "train_input_fn/bucket_queue/bucket/read_bucket_3"
  op: "QueueDequeueManyV2"
  input: "train_input_fn/bucket_queue/bucket/bucket_queue_3"
  input: "train_input_fn/bucket_queue/bucket/read_bucket_3/n"
  attr {
    key: "_output_shapes"
    value {
      list {
        shape {
          dim {
            size: 32
          }
        }
        shape {
          dim {
            size: 32
          }
        }
        shape {
          dim {
            size: 32
          }
          dim {
            size: -1
          }
        }
        shape {
          dim {
            size: 32
          }
        }
        shape {
          dim {
            size: 32
          }
          dim {
            size: -1
          }
        }
      }
    }
  }
  attr {
    key: "component_types"
    value {
      list {
        type: DT_INT32
        type: DT_INT32
        type: DT_STRING
        type: DT_INT32
        type: DT_STRING
      }
    }
  }
  attr {
    key: "timeout_ms"
    value {
      i: -1
    }
  }
}
node {
  name: "train_input_fn/bucket_queue/bucket/enqueue_from_bucket_3"
  op: "QueueEnqueueV2"
  input: "train_input_fn/bucket_queue/bucket/top_queue"
  input: "train_input_fn/bucket_queue/bucket/Const_3"
  input: "train_input_fn/bucket_queue/bucket/read_bucket_3"
  input: "train_input_fn/bucket_queue/bucket/read_bucket_3:1"
  input: "train_input_fn/bucket_queue/bucket/read_bucket_3:2"
  input: "train_input_fn/bucket_queue/bucket/read_bucket_3:3"
  input: "train_input_fn/bucket_queue/bucket/read_bucket_3:4"
  attr {
    key: "Tcomponents"
    value {
      list {
        type: DT_INT32
        type: DT_INT32
        type: DT_INT32
        type: DT_STRING
        type: DT_INT32
        type: DT_STRING
      }
    }
  }
  attr {
    key: "timeout_ms"
    value {
      i: -1
    }
  }
}
node {
  name: "train_input_fn/bucket_queue/bucket/Const_4"
  op: "Const"
  attr {
    key: "_output_shapes"
    value {
      list {
        shape {
        }
      }
    }
  }
  attr {
    key: "dtype"
    value {
      type: DT_INT32
    }
  }
  attr {
    key: "value"
    value {
      tensor {
        dtype: DT_INT32
        tensor_shape {
        }
        int_val: 4
      }
    }
  }
}
node {
  name: "train_input_fn/bucket_queue/bucket/read_bucket_4/n"
  op: "Const"
  attr {
    key: "_output_shapes"
    value {
      list {
        shape {
        }
      }
    }
  }
  attr {
    key: "dtype"
    value {
      type: DT_INT32
    }
  }
  attr {
    key: "value"
    value {
      tensor {
        dtype: DT_INT32
        tensor_shape {
        }
        int_val: 32
      }
    }
  }
}
node {
  name: "train_input_fn/bucket_queue/bucket/read_bucket_4"
  op: "QueueDequeueManyV2"
  input: "train_input_fn/bucket_queue/bucket/bucket_queue_4"
  input: "train_input_fn/bucket_queue/bucket/read_bucket_4/n"
  attr {
    key: "_output_shapes"
    value {
      list {
        shape {
          dim {
            size: 32
          }
        }
        shape {
          dim {
            size: 32
          }
        }
        shape {
          dim {
            size: 32
          }
          dim {
            size: -1
          }
        }
        shape {
          dim {
            size: 32
          }
        }
        shape {
          dim {
            size: 32
          }
          dim {
            size: -1
          }
        }
      }
    }
  }
  attr {
    key: "component_types"
    value {
      list {
        type: DT_INT32
        type: DT_INT32
        type: DT_STRING
        type: DT_INT32
        type: DT_STRING
      }
    }
  }
  attr {
    key: "timeout_ms"
    value {
      i: -1
    }
  }
}
node {
  name: "train_input_fn/bucket_queue/bucket/enqueue_from_bucket_4"
  op: "QueueEnqueueV2"
  input: "train_input_fn/bucket_queue/bucket/top_queue"
  input: "train_input_fn/bucket_queue/bucket/Const_4"
  input: "train_input_fn/bucket_queue/bucket/read_bucket_4"
  input: "train_input_fn/bucket_queue/bucket/read_bucket_4:1"
  input: "train_input_fn/bucket_queue/bucket/read_bucket_4:2"
  input: "train_input_fn/bucket_queue/bucket/read_bucket_4:3"
  input: "train_input_fn/bucket_queue/bucket/read_bucket_4:4"
  attr {
    key: "Tcomponents"
    value {
      list {
        type: DT_INT32
        type: DT_INT32
        type: DT_INT32
        type: DT_STRING
        type: DT_INT32
        type: DT_STRING
      }
    }
  }
  attr {
    key: "timeout_ms"
    value {
      i: -1
    }
  }
}
node {
  name: "train_input_fn/bucket_queue/bucket/bucket_queue_0_Close"
  op: "QueueCloseV2"
  input: "train_input_fn/bucket_queue/bucket/bucket_queue_0"
  attr {
    key: "cancel_pending_enqueues"
    value {
      b: false
    }
  }
}
node {
  name: "train_input_fn/bucket_queue/bucket/bucket_queue_0_Close_1"
  op: "QueueCloseV2"
  input: "train_input_fn/bucket_queue/bucket/bucket_queue_0"
  attr {
    key: "cancel_pending_enqueues"
    value {
      b: true
    }
  }
}
node {
  name: "train_input_fn/bucket_queue/bucket/bucket_queue_1_Close"
  op: "QueueCloseV2"
  input: "train_input_fn/bucket_queue/bucket/bucket_queue_1"
  attr {
    key: "cancel_pending_enqueues"
    value {
      b: false
    }
  }
}
node {
  name: "train_input_fn/bucket_queue/bucket/bucket_queue_1_Close_1"
  op: "QueueCloseV2"
  input: "train_input_fn/bucket_queue/bucket/bucket_queue_1"
  attr {
    key: "cancel_pending_enqueues"
    value {
      b: true
    }
  }
}
node {
  name: "train_input_fn/bucket_queue/bucket/bucket_queue_2_Close"
  op: "QueueCloseV2"
  input: "train_input_fn/bucket_queue/bucket/bucket_queue_2"
  attr {
    key: "cancel_pending_enqueues"
    value {
      b: false
    }
  }
}
node {
  name: "train_input_fn/bucket_queue/bucket/bucket_queue_2_Close_1"
  op: "QueueCloseV2"
  input: "train_input_fn/bucket_queue/bucket/bucket_queue_2"
  attr {
    key: "cancel_pending_enqueues"
    value {
      b: true
    }
  }
}
node {
  name: "train_input_fn/bucket_queue/bucket/bucket_queue_3_Close"
  op: "QueueCloseV2"
  input: "train_input_fn/bucket_queue/bucket/bucket_queue_3"
  attr {
    key: "cancel_pending_enqueues"
    value {
      b: false
    }
  }
}
node {
  name: "train_input_fn/bucket_queue/bucket/bucket_queue_3_Close_1"
  op: "QueueCloseV2"
  input: "train_input_fn/bucket_queue/bucket/bucket_queue_3"
  attr {
    key: "cancel_pending_enqueues"
    value {
      b: true
    }
  }
}
node {
  name: "train_input_fn/bucket_queue/bucket/bucket_queue_4_Close"
  op: "QueueCloseV2"
  input: "train_input_fn/bucket_queue/bucket/bucket_queue_4"
  attr {
    key: "cancel_pending_enqueues"
    value {
      b: false
    }
  }
}
node {
  name: "train_input_fn/bucket_queue/bucket/bucket_queue_4_Close_1"
  op: "QueueCloseV2"
  input: "train_input_fn/bucket_queue/bucket/bucket_queue_4"
  attr {
    key: "cancel_pending_enqueues"
    value {
      b: true
    }
  }
}
node {
  name: "train_input_fn/bucket_queue/bucket/top_queue_Close"
  op: "QueueCloseV2"
  input: "train_input_fn/bucket_queue/bucket/top_queue"
  attr {
    key: "cancel_pending_enqueues"
    value {
      b: false
    }
  }
}
node {
  name: "train_input_fn/bucket_queue/bucket/top_queue_Close_1"
  op: "QueueCloseV2"
  input: "train_input_fn/bucket_queue/bucket/top_queue"
  attr {
    key: "cancel_pending_enqueues"
    value {
      b: true
    }
  }
}
node {
  name: "train_input_fn/bucket_queue/bucket/top_queue_Size"
  op: "QueueSizeV2"
  input: "train_input_fn/bucket_queue/bucket/top_queue"
  attr {
    key: "_output_shapes"
    value {
      list {
        shape {
        }
      }
    }
  }
}
node {
  name: "train_input_fn/bucket_queue/bucket/Cast"
  op: "Cast"
  input: "train_input_fn/bucket_queue/bucket/top_queue_Size"
  attr {
    key: "DstT"
    value {
      type: DT_FLOAT
    }
  }
  attr {
    key: "SrcT"
    value {
      type: DT_INT32
    }
  }
  attr {
    key: "_output_shapes"
    value {
      list {
        shape {
        }
      }
    }
  }
}
node {
  name: "train_input_fn/bucket_queue/bucket/bucket/train_input_fn/bucket_queue/bucket/bucket_queue_0/size/tags"
  op: "Const"
  attr {
    key: "_output_shapes"
    value {
      list {
        shape {
        }
      }
    }
  }
  attr {
    key: "dtype"
    value {
      type: DT_STRING
    }
  }
  attr {
    key: "value"
    value {
      tensor {
        dtype: DT_STRING
        tensor_shape {
        }
        string_val: "train_input_fn/bucket_queue/bucket/bucket/train_input_fn/bucket_queue/bucket/bucket_queue_0/size"
      }
    }
  }
}
node {
  name: "train_input_fn/bucket_queue/bucket/bucket/train_input_fn/bucket_queue/bucket/bucket_queue_0/size"
  op: "ScalarSummary"
  input: "train_input_fn/bucket_queue/bucket/bucket/train_input_fn/bucket_queue/bucket/bucket_queue_0/size/tags"
  input: "train_input_fn/bucket_queue/bucket/Cast"
  attr {
    key: "T"
    value {
      type: DT_FLOAT
    }
  }
  attr {
    key: "_output_shapes"
    value {
      list {
        shape {
        }
      }
    }
  }
}
node {
  name: "train_input_fn/bucket_queue/bucket/top_queue_Size_1"
  op: "QueueSizeV2"
  input: "train_input_fn/bucket_queue/bucket/top_queue"
  attr {
    key: "_output_shapes"
    value {
      list {
        shape {
        }
      }
    }
  }
}
node {
  name: "train_input_fn/bucket_queue/bucket/Cast_1"
  op: "Cast"
  input: "train_input_fn/bucket_queue/bucket/top_queue_Size_1"
  attr {
    key: "DstT"
    value {
      type: DT_FLOAT
    }
  }
  attr {
    key: "SrcT"
    value {
      type: DT_INT32
    }
  }
  attr {
    key: "_output_shapes"
    value {
      list {
        shape {
        }
      }
    }
  }
}
node {
  name: "train_input_fn/bucket_queue/bucket/bucket/train_input_fn/bucket_queue/bucket/bucket_queue_1/size/tags"
  op: "Const"
  attr {
    key: "_output_shapes"
    value {
      list {
        shape {
        }
      }
    }
  }
  attr {
    key: "dtype"
    value {
      type: DT_STRING
    }
  }
  attr {
    key: "value"
    value {
      tensor {
        dtype: DT_STRING
        tensor_shape {
        }
        string_val: "train_input_fn/bucket_queue/bucket/bucket/train_input_fn/bucket_queue/bucket/bucket_queue_1/size"
      }
    }
  }
}
node {
  name: "train_input_fn/bucket_queue/bucket/bucket/train_input_fn/bucket_queue/bucket/bucket_queue_1/size"
  op: "ScalarSummary"
  input: "train_input_fn/bucket_queue/bucket/bucket/train_input_fn/bucket_queue/bucket/bucket_queue_1/size/tags"
  input: "train_input_fn/bucket_queue/bucket/Cast_1"
  attr {
    key: "T"
    value {
      type: DT_FLOAT
    }
  }
  attr {
    key: "_output_shapes"
    value {
      list {
        shape {
        }
      }
    }
  }
}
node {
  name: "train_input_fn/bucket_queue/bucket/top_queue_Size_2"
  op: "QueueSizeV2"
  input: "train_input_fn/bucket_queue/bucket/top_queue"
  attr {
    key: "_output_shapes"
    value {
      list {
        shape {
        }
      }
    }
  }
}
node {
  name: "train_input_fn/bucket_queue/bucket/Cast_2"
  op: "Cast"
  input: "train_input_fn/bucket_queue/bucket/top_queue_Size_2"
  attr {
    key: "DstT"
    value {
      type: DT_FLOAT
    }
  }
  attr {
    key: "SrcT"
    value {
      type: DT_INT32
    }
  }
  attr {
    key: "_output_shapes"
    value {
      list {
        shape {
        }
      }
    }
  }
}
node {
  name: "train_input_fn/bucket_queue/bucket/bucket/train_input_fn/bucket_queue/bucket/bucket_queue_2/size/tags"
  op: "Const"
  attr {
    key: "_output_shapes"
    value {
      list {
        shape {
        }
      }
    }
  }
  attr {
    key: "dtype"
    value {
      type: DT_STRING
    }
  }
  attr {
    key: "value"
    value {
      tensor {
        dtype: DT_STRING
        tensor_shape {
        }
        string_val: "train_input_fn/bucket_queue/bucket/bucket/train_input_fn/bucket_queue/bucket/bucket_queue_2/size"
      }
    }
  }
}
node {
  name: "train_input_fn/bucket_queue/bucket/bucket/train_input_fn/bucket_queue/bucket/bucket_queue_2/size"
  op: "ScalarSummary"
  input: "train_input_fn/bucket_queue/bucket/bucket/train_input_fn/bucket_queue/bucket/bucket_queue_2/size/tags"
  input: "train_input_fn/bucket_queue/bucket/Cast_2"
  attr {
    key: "T"
    value {
      type: DT_FLOAT
    }
  }
  attr {
    key: "_output_shapes"
    value {
      list {
        shape {
        }
      }
    }
  }
}
node {
  name: "train_input_fn/bucket_queue/bucket/top_queue_Size_3"
  op: "QueueSizeV2"
  input: "train_input_fn/bucket_queue/bucket/top_queue"
  attr {
    key: "_output_shapes"
    value {
      list {
        shape {
        }
      }
    }
  }
}
node {
  name: "train_input_fn/bucket_queue/bucket/Cast_3"
  op: "Cast"
  input: "train_input_fn/bucket_queue/bucket/top_queue_Size_3"
  attr {
    key: "DstT"
    value {
      type: DT_FLOAT
    }
  }
  attr {
    key: "SrcT"
    value {
      type: DT_INT32
    }
  }
  attr {
    key: "_output_shapes"
    value {
      list {
        shape {
        }
      }
    }
  }
}
node {
  name: "train_input_fn/bucket_queue/bucket/bucket/train_input_fn/bucket_queue/bucket/bucket_queue_3/size/tags"
  op: "Const"
  attr {
    key: "_output_shapes"
    value {
      list {
        shape {
        }
      }
    }
  }
  attr {
    key: "dtype"
    value {
      type: DT_STRING
    }
  }
  attr {
    key: "value"
    value {
      tensor {
        dtype: DT_STRING
        tensor_shape {
        }
        string_val: "train_input_fn/bucket_queue/bucket/bucket/train_input_fn/bucket_queue/bucket/bucket_queue_3/size"
      }
    }
  }
}
node {
  name: "train_input_fn/bucket_queue/bucket/bucket/train_input_fn/bucket_queue/bucket/bucket_queue_3/size"
  op: "ScalarSummary"
  input: "train_input_fn/bucket_queue/bucket/bucket/train_input_fn/bucket_queue/bucket/bucket_queue_3/size/tags"
  input: "train_input_fn/bucket_queue/bucket/Cast_3"
  attr {
    key: "T"
    value {
      type: DT_FLOAT
    }
  }
  attr {
    key: "_output_shapes"
    value {
      list {
        shape {
        }
      }
    }
  }
}
node {
  name: "train_input_fn/bucket_queue/bucket/top_queue_Size_4"
  op: "QueueSizeV2"
  input: "train_input_fn/bucket_queue/bucket/top_queue"
  attr {
    key: "_output_shapes"
    value {
      list {
        shape {
        }
      }
    }
  }
}
node {
  name: "train_input_fn/bucket_queue/bucket/Cast_4"
  op: "Cast"
  input: "train_input_fn/bucket_queue/bucket/top_queue_Size_4"
  attr {
    key: "DstT"
    value {
      type: DT_FLOAT
    }
  }
  attr {
    key: "SrcT"
    value {
      type: DT_INT32
    }
  }
  attr {
    key: "_output_shapes"
    value {
      list {
        shape {
        }
      }
    }
  }
}
node {
  name: "train_input_fn/bucket_queue/bucket/bucket/train_input_fn/bucket_queue/bucket/bucket_queue_4/size/tags"
  op: "Const"
  attr {
    key: "_output_shapes"
    value {
      list {
        shape {
        }
      }
    }
  }
  attr {
    key: "dtype"
    value {
      type: DT_STRING
    }
  }
  attr {
    key: "value"
    value {
      tensor {
        dtype: DT_STRING
        tensor_shape {
        }
        string_val: "train_input_fn/bucket_queue/bucket/bucket/train_input_fn/bucket_queue/bucket/bucket_queue_4/size"
      }
    }
  }
}
node {
  name: "train_input_fn/bucket_queue/bucket/bucket/train_input_fn/bucket_queue/bucket/bucket_queue_4/size"
  op: "ScalarSummary"
  input: "train_input_fn/bucket_queue/bucket/bucket/train_input_fn/bucket_queue/bucket/bucket_queue_4/size/tags"
  input: "train_input_fn/bucket_queue/bucket/Cast_4"
  attr {
    key: "T"
    value {
      type: DT_FLOAT
    }
  }
  attr {
    key: "_output_shapes"
    value {
      list {
        shape {
        }
      }
    }
  }
}
node {
  name: "train_input_fn/bucket_queue/bucket/top_queue_Size_5"
  op: "QueueSizeV2"
  input: "train_input_fn/bucket_queue/bucket/top_queue"
  attr {
    key: "_output_shapes"
    value {
      list {
        shape {
        }
      }
    }
  }
}
node {
  name: "train_input_fn/bucket_queue/bucket/Cast_5"
  op: "Cast"
  input: "train_input_fn/bucket_queue/bucket/top_queue_Size_5"
  attr {
    key: "DstT"
    value {
      type: DT_FLOAT
    }
  }
  attr {
    key: "SrcT"
    value {
      type: DT_INT32
    }
  }
  attr {
    key: "_output_shapes"
    value {
      list {
        shape {
        }
      }
    }
  }
}
node {
  name: "train_input_fn/bucket_queue/bucket/mul/y"
  op: "Const"
  attr {
    key: "_output_shapes"
    value {
      list {
        shape {
        }
      }
    }
  }
  attr {
    key: "dtype"
    value {
      type: DT_FLOAT
    }
  }
  attr {
    key: "value"
    value {
      tensor {
        dtype: DT_FLOAT
        tensor_shape {
        }
        float_val: 0.0001814223505789414
      }
    }
  }
}
node {
  name: "train_input_fn/bucket_queue/bucket/mul"
  op: "Mul"
  input: "train_input_fn/bucket_queue/bucket/Cast_5"
  input: "train_input_fn/bucket_queue/bucket/mul/y"
  attr {
    key: "T"
    value {
      type: DT_FLOAT
    }
  }
  attr {
    key: "_output_shapes"
    value {
      list {
        shape {
        }
      }
    }
  }
}
node {
  name: "train_input_fn/bucket_queue/bucket/bucket/train_input_fn/bucket_queue/bucket/top_queue/fraction_of_5512_full/tags"
  op: "Const"
  attr {
    key: "_output_shapes"
    value {
      list {
        shape {
        }
      }
    }
  }
  attr {
    key: "dtype"
    value {
      type: DT_STRING
    }
  }
  attr {
    key: "value"
    value {
      tensor {
        dtype: DT_STRING
        tensor_shape {
        }
        string_val: "…"
      }
    }
  }
}
node {
  name: "train_input_fn/bucket_queue/bucket/bucket/train_input_fn/bucket_queue/bucket/top_queue/fraction_of_5512_full"
  op: "ScalarSummary"
  input: "train_input_fn/bucket_queue/bucket/bucket/train_input_fn/bucket_queue/bucket/top_queue/fraction_of_5512_full/tags"
  input: "train_input_fn/bucket_queue/bucket/mul"
  attr {
    key: "T"
    value {
      type: DT_FLOAT
    }
  }
  attr {
    key: "_output_shapes"
    value {
      list {
        shape {
        }
      }
    }
  }
}
node {
  name: "train_input_fn/bucket_queue/bucket/dequeue_top"
  op: "QueueDequeueV2"
  input: "train_input_fn/bucket_queue/bucket/top_queue"
  attr {
    key: "_output_shapes"
    value {
      list {
        shape {
        }
        shape {
          dim {
            size: 32
          }
        }
        shape {
          dim {
            size: 32
          }
        }
        shape {
          dim {
            size: 32
          }
          dim {
            size: -1
          }
        }
        shape {
          dim {
            size: 32
          }
        }
        shape {
          dim {
            size: 32
          }
          dim {
            size: -1
          }
        }
      }
    }
  }
  attr {
    key: "component_types"
    value {
      list {
        type: DT_INT32
        type: DT_INT32
        type: DT_INT32
        type: DT_STRING
        type: DT_INT32
        type: DT_STRING
      }
    }
  }
  attr {
    key: "timeout_ms"
    value {
      i: -1
    }
  }
}
node {
  name: "model/att_seq2seq/Const"
  op: "Const"
  attr {
    key: "_output_shapes"
    value {
      list {
        shape {
          dim {
            size: 433
          }
        }
      }
    }
  }
  attr {
    key: "dtype"
    value {
      type: DT_STRING
    }
  }
  attr {
    key: "value"
    value {
      tensor {
        dtype: DT_STRING
        tensor_shape {
          dim {
            size: 433
          }
        }
        string_val: ")"
        string_val: "("
        string_val: ";"
        string_val: "."
        string_val: "VAR_1"
        string_val: "}"
        string_val: "{"
        string_val: "METHOD_1"
        string_val: "VAR_2"
        string_val: ","
        string_val: "TYPE_1"
        string_val: "public"
        string_val: "METHOD_2"
        string_val: "void"
        string_val: "="
        string_val: "VAR_3"
        string_val: "METHOD_3"
        string_val: "return"
        string_val: "TYPE_2"
        string_val: "java.lang.String"
        string_val: "if"
        string_val: "VAR_4"
        string_val: "this"
        string_val: "STRING_1"
        string_val: "null"
        string_val: "new"
        string_val: "METHOD_4"
        string_val: "int"
        string_val: ">"
        string_val: "<"
        string_val: "boolean"
        string_val: "0"
        string_val: "private"
        string_val: "+"
        string_val: "VAR_5"
        string_val: "false"
        string_val: "true"
        string_val: "TYPE_3"
        string_val: "!="
        string_val: "=="
        string_val: "static"
        string_val: "STRING_2"
        string_val: "throws"
        string_val: "]"
        string_val: "["
        string_val: "METHOD_5"
        string_val: "super"
        string_val: "protected"
        string_val: "final"
        string_val: ":"
        string_val: "1"
        string_val: "INT_1"
        string_val: "else"
        string_val: "!"
        string_val: "i"
        string_val: "get"
        string_val: "VAR_6"
        string_val: "android.view.View"
        string_val: "java.lang.System.out.println"
        string_val: "-"
        string_val: "java.lang.Exception"
        string_val: "java.util.List"
        string_val: "?"
        string_val: "value"
        string_val: "id"
        string_val: "add"
        string_val: "long"
        string_val: "try"
        string_val: "&&"
        string_val: "class"
        string_val: "android.content.Intent"
        string_val: "name"
        string_val: "catch"
        string_val: "TYPE_4"
        string_val: "double"
        string_val: "position"
        string_val: "context"
        string_val: "java.lang.Object"
        string_val: "view"
        string_val: "for"
        string_val: "java.io.IOException"
        string_val: "result"
        string_val: "size"
        string_val: "intent"
        string_val: "toString"
        string_val: "METHOD_6"
        string_val: "STRING_3"
        string_val: "setText"
        string_val: "remove"
        string_val: "event"
        string_val: "x"
        string_val: "index"
        string_val: "key"
        string_val: "throw"
        string_val: "synchronized"
        string_val: "float"
        string_val: "message"
        string_val: "start"
        string_val: "equals"
        string_val: "data"
        string_val: "java.lang.Integer"
        string_val: "args"
        string_val: "java.util.ArrayList"
        string_val: "||"
        string_val: "VAR_7"
        string_val: "show"
        string_val: "y"
        string_val: "length"
        string_val: "*"
        string_val: "++"
        string_val: "item"
        string_val: "case"
        string_val: "type"
        string_val: "put"
        string_val: "error"
        string_val: "t"
        string_val: "INT_2"
        string_val: "info"
        string_val: "init"
        string_val: "c"
        string_val: "update"
        string_val: "main"
        string_val: "isEmpty"
        string_val: "execute"
        string_val: "p"
        string_val: "getName"
        string_val: "getActivity"
        string_val: "/"
        string_val: "assertEquals"
        string_val: "java.io.File"
        string_val: "response"
        string_val: "set"
        string_val: "b"
        string_val: "state"
        string_val: "getString"
        string_val: "java.lang.Throwable"
        string_val: "+="
        string_val: "byte"
        string_val: ">="
        string_val: "getId"
        string_val: "path"
        string_val: "contains"
        string_val: "url"
        string_val: "java.lang.Long"
        string_val: "STRING_4"
        string_val: "listener"
        string_val: "TYPE_5"
        string_val: "getText"
        string_val: "text"
        string_val: "a"
        string_val: "n"
        string_val: "msg"
        string_val: "node"
        string_val: "file"
        string_val: "count"
        string_val: "setEnabled"
        string_val: "android.content.Context"
        string_val: "java.util.Map"
        string_val: "list"
        string_val: "java.util.Date"
        string_val: "instanceof"
        string_val: "FLOAT_1"
        string_val: "status"
        string_val: "getValue"
        string_val: "..."
        string_val: "java.lang.Boolean"
        string_val: "VAR_8"
        string_val: "delete"
        string_val: "break"
        string_val: "query"
        string_val: "METHOD_7"
        string_val: "switch"
        string_val: "height"
        string_val: "java.lang.Class"
        string_val: "getContext"
        string_val: "build"
        string_val: "<="
        string_val: "date"
        string_val: "values"
        string_val: "append"
        string_val: "while"
        string_val: "java.util.Set"
        string_val: "java.lang.Thread"
        string_val: "format"
        string_val: "time"
        string_val: "params"
        string_val: "java.lang.Double"
        string_val: "title"
        string_val: "element"
        string_val: "out"
        string_val: "java.lang.String.format"
        string_val: "java.lang.Void"
        string_val: "replace"
        string_val: "target"
        string_val: "obj"
        string_val: "extends"
        string_val: "assertTrue"
        string_val: "f"
        string_val: "source"
        string_val: "--"
        string_val: "str"
        string_val: "toLowerCase"
        string_val: "offset"
        string_val: "setValue"
        string_val: "content"
        string_val: "STRING_5"
        string_val: "CHAR_1"
        string_val: "java.util.Collection"
        string_val: "end"
        string_val: "handle"
        string_val: "commit"
        string_val: "finally"
        string_val: "INT_3"
        string_val: "char"
        string_val: "getClass"
        string_val: "output"
        string_val: "trim"
        string_val: "buffer"
        string_val: "min"
        string_val: "assert"
        string_val: "number"
        string_val: "string"
        string_val: "token"
        string_val: "compareTo"
        string_val: "%"
        string_val: "VAR_9"
        string_val: "java.util.HashMap"
        string_val: "default"
        string_val: "temp"
        string_val: "field"
        string_val: "replaceAll"
        string_val: "fileName"
        string_val: "substring"
        string_val: "java.lang.Integer.parseInt"
        string_val: "getTime"
        string_val: "abstract"
        string_val: "&"
        string_val: "j"
        string_val: "getType"
        string_val: "0.0"
        string_val: "java.util.Arrays.asList"
        string_val: "java.lang.NullPointerException"
        string_val: "TYPE_6"
        string_val: "open"
        string_val: "line"
        string_val: "assertThat"
        string_val: "array"
        string_val: "|"
        string_val: "getData"
        string_val: "java.lang.CharSequence"
        string_val: "-="
        string_val: "num"
        string_val: "\"\\n\""
        string_val: "to"
        string_val: "assertNotNull"
        string_val: "getBoolean"
        string_val: "filename"
        string_val: "getInt"
        string_val: "filePath"
        string_val: "getView"
        string_val: "method"
        string_val: "java.lang.StringBuilder"
        string_val: "java.lang.System.exit"
        string_val: "STRING_6"
        string_val: "writer"
        string_val: "java.io.InputStream"
        string_val: "k"
        string_val: "label"
        string_val: "arg"
        string_val: "sum"
        string_val: "short"
        string_val: "startTime"
        string_val: "setState"
        string_val: "java.util.Random"
        string_val: "java.util.HashSet"
        string_val: "java.lang.System.out.print"
        string_val: "java.lang.System.err.println"
        string_val: "param"
        string_val: "VAR_10"
        string_val: "split"
        string_val: "iterator"
        string_val: "getIntent"
        string_val: "METHOD_8"
        string_val: "answer"
        string_val: "java.lang.Math.abs"
        string_val: "java.lang.Integer.toString"
        string_val: "parameters"
        string_val: "first"
        string_val: "java.net.URL"
        string_val: "fieldName"
        string_val: "buf"
        string_val: "fail"
        string_val: "startsWith"
        string_val: "native"
        string_val: "toUpperCase"
        string_val: "\"0\""
        string_val: "1.0"
        string_val: "0.0F"
        string_val: "className"
        string_val: "java.util.Calendar"
        string_val: "java.util.LinkedList"
        string_val: "java.lang.Float"
        string_val: "step"
        string_val: "getColor"
        string_val: "tmp"
        string_val: "counter"
        string_val: "1.0F"
        string_val: "results"
        string_val: "INT_4"
        string_val: "FLOAT_2"
        string_val: "select"
        string_val: "CHAR_2"
        string_val: "STRING_7"
        string_val: "java.util.Scanner"
        string_val: "intValue"
        string_val: "VAR_11"
        string_val: "java.util.Collections.sort"
        string_val: "expr"
        string_val: "0L"
        string_val: "src"
        string_val: "java.util.Properties"
        string_val: "pattern"
        string_val: "endTime"
        string_val: "java.lang.Math.round"
        string_val: "java.util.Iterator"
        string_val: "nodes"
        string_val: "errors"
        string_val: "\"true\""
        string_val: "getConfig"
        string_val: "\"id\""
        string_val: "java.awt.Color"
        string_val: "1L"
        string_val: "var"
        string_val: "java.util.Calendar.getInstance"
        string_val: "attribute"
        string_val: "TYPE_7"
        string_val: "keys"
        string_val: "java.lang.ClassNotFoundException"
        string_val: "android.widget.Button"
        string_val: "STRING_8"
        string_val: "function"
        string_val: "rows"
        string_val: "operation"
        string_val: "\"name\""
        string_val: "*="
        string_val: "java.util.Map.Entry"
        string_val: "names"
        string_val: "java.lang.Math.pow"
        string_val: "VAR_12"
        string_val: "String"
        string_val: "diff"
        string_val: "java.util.Vector"
        string_val: "java.lang.Math.random"
        string_val: "out.write"
        string_val: "java.lang.Long.parseLong"
        string_val: "op"
        string_val: "STRING_9"
        string_val: "\"false\""
        string_val: "|="
        string_val: "org.testng.Assert.assertEquals"
        string_val: "java.io.BufferedReader"
        string_val: "METHOD_9"
        string_val: "INT_5"
        string_val: "^"
        string_val: "words"
        string_val: "java.io.FileOutputStream"
        string_val: "getSelection"
        string_val: "java.lang.StringBuffer"
        string_val: "stringBuilder.append"
        string_val: "java.util.logging.Logger.getLogger"
        string_val: "java.util.regex.Matcher"
        string_val: "java.io.FileWriter"
        string_val: "java.io.FileInputStream"
        string_val: "FLOAT_3"
        string_val: "args.length"
        string_val: "~"
        string_val: "java.io.BufferedWriter"
        string_val: "addComponent"
        string_val: "CHAR_3"
        string_val: "VAR_13"
        string_val: "\"type\""
        string_val: "not"
        string_val: "java.awt.Font"
        string_val: "android.widget.LinearLayout"
        string_val: "TYPE_8"
        string_val: "STRING_10"
        string_val: "NULL"
        string_val: "writer.write"
        string_val: "&="
        string_val: "continue"
        string_val: "do"
        string_val: "\"\\t\""
        string_val: "CHAR_4"
        string_val: "VAR_14"
        string_val: "STRING_11"
        string_val: "TYPE_9"
        string_val: "INT_6"
        string_val: "/="
        string_val: "java.io.FileReader"
        string_val: "^="
        string_val: "METHOD_10"
        string_val: "<<="
        string_val: "VAR_15"
        string_val: "%="
        string_val: "FLOAT_4"
        string_val: "VAR_16"
        string_val: "INT_7"
        string_val: "TYPE_10"
        string_val: "STRING_12"
        string_val: "INT_8"
        string_val: "CHAR_5"
        string_val: ">>="
        string_val: "VAR_17"
        string_val: "field.type"
        string_val: "VAR_18"
        string_val: "TYPE_11"
        string_val: "FLOAT_6"
        string_val: "FLOAT_5"
        string_val: ">>>="
        string_val: "VAR_19"
        string_val: "TYPE_14"
        string_val: "TYPE_13"
        string_val: "TYPE_12"
        string_val: "METHOD_11"
        string_val: "INT_9"
        string_val: "INT_10"
        string_val: "FLOAT_7"
        string_val: "CHAR_7"
        string_val: "CHAR_6"
        string_val: "\"unchecked\""
        string_val: "UNK"
        string_val: "SEQUENCE_START"
        string_val: "SEQUENCE_END"
      }
    }
  }
}
node {
  name: "model/att_seq2seq/Const_1"
  op: "Const"
  attr {
    key: "_output_shapes"
    value {
      list {
        shape {
          dim {
            size: 433
          }
        }
      }
    }
  }
  attr {
    key: "dtype"
    value {
      type: DT_FLOAT
    }
  }
  attr {
    key: "value"
    value {
      tensor {
        dtype: DT_FLOAT
        tensor_shape {
          dim {
            size: 433
          }
        }
        tensor_content: "…"
      }
    }
  }
}
node {
  name: "model/att_seq2seq/range/start"
  op: "Const"
  attr {
    key: "_output_shapes"
    value {
      list {
        shape {
        }
      }
    }
  }
  attr {
    key: "dtype"
    value {
      type: DT_INT64
    }
  }
  attr {
    key: "value"
    value {
      tensor {
        dtype: DT_INT64
        tensor_shape {
        }
        int64_val: 0
      }
    }
  }
}
node {
  name: "model/att_seq2seq/range/limit"
  op: "Const"
  attr {
    key: "_output_shapes"
    value {
      list {
        shape {
        }
      }
    }
  }
  attr {
    key: "dtype"
    value {
      type: DT_INT64
    }
  }
  attr {
    key: "value"
    value {
      tensor {
        dtype: DT_INT64
        tensor_shape {
        }
        int64_val: 433
      }
    }
  }
}
node {
  name: "model/att_seq2seq/range/delta"
  op: "Const"
  attr {
    key: "_output_shapes"
    value {
      list {
        shape {
        }
      }
    }
  }
  attr {
    key: "dtype"
    value {
      type: DT_INT64
    }
  }
  attr {
    key: "value"
    value {
      tensor {
        dtype: DT_INT64
        tensor_shape {
        }
        int64_val: 1
      }
    }
  }
}
node {
  name: "model/att_seq2seq/range"
  op: "Range"
  input: "model/att_seq2seq/range/start"
  input: "model/att_seq2seq/range/limit"
  input: "model/att_seq2seq/range/delta"
  attr {
    key: "Tidx"
    value {
      type: DT_INT64
    }
  }
  attr {
    key: "_output_shapes"
    value {
      list {
        shape {
          dim {
            size: 433
          }
        }
      }
    }
  }
}
node {
  name: "model/att_seq2seq/hash_table"
  op: "HashTableV2"
  attr {
    key: "_output_shapes"
    value {
      list {
        shape {
        }
      }
    }
  }
  attr {
    key: "container"
    value {
      s: ""
    }
  }
  attr {
    key: "key_dtype"
    value {
      type: DT_INT64
    }
  }
  attr {
    key: "shared_name"
    value {
      s: ""
    }
  }
  attr {
    key: "use_node_name_sharing"
    value {
      b: false
    }
  }
  attr {
    key: "value_dtype"
    value {
      type: DT_STRING
    }
  }
}
node {
  name: "model/att_seq2seq/hash_table/Const"
  op: "Const"
  attr {
    key: "_output_shapes"
    value {
      list {
        shape {
        }
      }
    }
  }
  attr {
    key: "dtype"
    value {
      type: DT_STRING
    }
  }
  attr {
    key: "value"
    value {
      tensor {
        dtype: DT_STRING
        tensor_shape {
        }
        string_val: "UNK"
      }
    }
  }
}
node {
  name: "model/att_seq2seq/key_value_init"
  op: "InitializeTableV2"
  input: "model/att_seq2seq/hash_table"
  input: "model/att_seq2seq/range"
  input: "model/att_seq2seq/Const"
  attr {
    key: "Tkey"
    value {
      type: DT_INT64
    }
  }
  attr {
    key: "Tval"
    value {
      type: DT_STRING
    }
  }
}
node {
  name: "model/att_seq2seq/hash_table_1"
  op: "HashTableV2"
  attr {
    key: "_output_shapes"
    value {
      list {
        shape {
        }
      }
    }
  }
  attr {
    key: "container"
    value {
      s: ""
    }
  }
  attr {
    key: "key_dtype"
    value {
      type: DT_STRING
    }
  }
  attr {
    key: "shared_name"
    value {
      s: ""
    }
  }
  attr {
    key: "use_node_name_sharing"
    value {
      b: false
    }
  }
  attr {
    key: "value_dtype"
    value {
      type: DT_INT64
    }
  }
}
node {
  name: "model/att_seq2seq/hash_table_1/Const"
  op: "Const"
  attr {
    key: "_output_shapes"
    value {
      list {
        shape {
        }
      }
    }
  }
  attr {
    key: "dtype"
    value {
      type: DT_INT64
    }
  }
  attr {
    key: "value"
    value {
      tensor {
        dtype: DT_INT64
        tensor_shape {
        }
        int64_val: 430
      }
    }
  }
}
node {
  name: "model/att_seq2seq/key_value_init_1"
  op: "InitializeTableV2"
  input: "model/att_seq2seq/hash_table_1"
  input: "model/att_seq2seq/Const"
  input: "model/att_seq2seq/range"
  attr {
    key: "Tkey"
    value {
      type: DT_STRING
    }
  }
  attr {
    key: "Tval"
    value {
      type: DT_INT64
    }
  }
}
node {
  name: "model/att_seq2seq/hash_table_2"
  op: "HashTableV2"
  attr {
    key: "_output_shapes"
    value {
      list {
        shape {
        }
      }
    }
  }
  attr {
    key: "container"
    value {
      s: ""
    }
  }
  attr {
    key: "key_dtype"
    value {
      type: DT_STRING
    }
  }
  attr {
    key: "shared_name"
    value {
      s: ""
    }
  }
  attr {
    key: "use_node_name_sharing"
    value {
      b: false
    }
  }
  attr {
    key: "value_dtype"
    value {
      type: DT_FLOAT
    }
  }
}
node {
  name: "model/att_seq2seq/hash_table_2/Const"
  op: "Const"
  attr {
    key: "_output_shapes"
    value {
      list {
        shape {
        }
      }
    }
  }
  attr {
    key: "dtype"
    value {
      type: DT_FLOAT
    }
  }
  attr {
    key: "value"
    value {
      tensor {
        dtype: DT_FLOAT
        tensor_shape {
        }
        float_val: -1.0
      }
    }
  }
}
node {
  name: "model/att_seq2seq/key_value_init_2"
  op: "InitializeTableV2"
  input: "model/att_seq2seq/hash_table_2"
  input: "model/att_seq2seq/Const"
  input: "model/att_seq2seq/Const_1"
  attr {
    key: "Tkey"
    value {
      type: DT_STRING
    }
  }
  attr {
    key: "Tval"
    value {
      type: DT_FLOAT
    }
  }
}
node {
  name: "model/att_seq2seq/Const_2"
  op: "Const"
  attr {
    key: "_output_shapes"
    value {
      list {
        shape {
          dim {
            size: 428
          }
        }
      }
    }
  }
  attr {
    key: "dtype"
    value {
      type: DT_STRING
    }
  }
  attr {
    key: "value"
    value {
      tensor {
        dtype: DT_STRING
        tensor_shape {
          dim {
            size: 428
          }
        }
        string_val: ")"
        string_val: "("
        string_val: ";"
        string_val: "VAR_1"
        string_val: "."
        string_val: "}"
        string_val: "{"
        string_val: "METHOD_1"
        string_val: "public"
        string_val: ","
        string_val: "VAR_2"
        string_val: "TYPE_1"
        string_val: "void"
        string_val: "METHOD_2"
        string_val: "="
        string_val: "return"
        string_val: "VAR_3"
        string_val: "METHOD_3"
        string_val: "java.lang.String"
        string_val: "TYPE_2"
        string_val: "int"
        string_val: "this"
        string_val: "VAR_4"
        string_val: "new"
        string_val: "if"
        string_val: "null"
        string_val: "STRING_1"
        string_val: "METHOD_4"
        string_val: ">"
        string_val: "<"
        string_val: "private"
        string_val: "boolean"
        string_val: "static"
        string_val: "0"
        string_val: "throws"
        string_val: "TYPE_3"
        string_val: "true"
        string_val: "false"
        string_val: "VAR_5"
        string_val: "protected"
        string_val: "super"
        string_val: "]"
        string_val: "["
        string_val: "+"
        string_val: "final"
        string_val: "METHOD_5"
        string_val: "=="
        string_val: "!="
        string_val: "1"
        string_val: "STRING_2"
        string_val: ":"
        string_val: "android.view.View"
        string_val: "INT_1"
        string_val: "get"
        string_val: "i"
        string_val: "java.lang.Exception"
        string_val: "java.util.List"
        string_val: "value"
        string_val: "long"
        string_val: "id"
        string_val: "add"
        string_val: "name"
        string_val: "VAR_6"
        string_val: "-"
        string_val: "android.content.Intent"
        string_val: "java.lang.Object"
        string_val: "else"
        string_val: "double"
        string_val: "java.io.IOException"
        string_val: "view"
        string_val: "position"
        string_val: "context"
        string_val: "class"
        string_val: "?"
        string_val: "for"
        string_val: "!"
        string_val: "TYPE_4"
        string_val: "result"
        string_val: "java.lang.System.out.println"
        string_val: "event"
        string_val: "intent"
        string_val: "toString"
        string_val: "x"
        string_val: "key"
        string_val: "remove"
        string_val: "try"
        string_val: "size"
        string_val: "index"
        string_val: "float"
        string_val: "message"
        string_val: "setText"
        string_val: "data"
        string_val: "args"
        string_val: "catch"
        string_val: "METHOD_6"
        string_val: "start"
        string_val: "STRING_3"
        string_val: "java.lang.Integer"
        string_val: "y"
        string_val: "&&"
        string_val: "synchronized"
        string_val: "java.util.ArrayList"
        string_val: "item"
        string_val: "++"
        string_val: "main"
        string_val: "*"
        string_val: "throw"
        string_val: "type"
        string_val: "equals"
        string_val: "VAR_7"
        string_val: "init"
        string_val: "show"
        string_val: "t"
        string_val: "execute"
        string_val: "length"
        string_val: "update"
        string_val: "put"
        string_val: "case"
        string_val: "c"
        string_val: "java.io.File"
        string_val: "error"
        string_val: "response"
        string_val: "byte"
        string_val: "assertEquals"
        string_val: "p"
        string_val: "b"
        string_val: "java.lang.Throwable"
        string_val: "url"
        string_val: "INT_2"
        string_val: "/"
        string_val: "state"
        string_val: "set"
        string_val: "path"
        string_val: "getName"
        string_val: "||"
        string_val: "java.lang.Long"
        string_val: "msg"
        string_val: "+="
        string_val: "getActivity"
        string_val: "android.content.Context"
        string_val: "listener"
        string_val: "text"
        string_val: "getString"
        string_val: "info"
        string_val: "node"
        string_val: "a"
        string_val: "n"
        string_val: "file"
        string_val: "..."
        string_val: "java.util.Map"
        string_val: "contains"
        string_val: "getId"
        string_val: "getText"
        string_val: "list"
        string_val: "count"
        string_val: "TYPE_5"
        string_val: "delete"
        string_val: "isEmpty"
        string_val: "query"
        string_val: "java.util.Date"
        string_val: "status"
        string_val: "getValue"
        string_val: "java.lang.Boolean"
        string_val: "java.lang.Class"
        string_val: "STRING_4"
        string_val: ">="
        string_val: "switch"
        string_val: "build"
        string_val: "java.util.Set"
        string_val: "height"
        string_val: "values"
        string_val: "VAR_8"
        string_val: "java.lang.Void"
        string_val: "date"
        string_val: "params"
        string_val: "getContext"
        string_val: "element"
        string_val: "instanceof"
        string_val: "setEnabled"
        string_val: "while"
        string_val: "format"
        string_val: "title"
        string_val: "FLOAT_1"
        string_val: "append"
        string_val: "time"
        string_val: "METHOD_7"
        string_val: "target"
        string_val: "obj"
        string_val: "break"
        string_val: "<="
        string_val: "extends"
        string_val: "java.lang.Double"
        string_val: "out"
        string_val: "str"
        string_val: "java.lang.Thread"
        string_val: "f"
        string_val: "handle"
…
        string_val: "model/att_seq2seq/decode/attention_decoder/decoder/attention_mix/weights"
      }
    }
  }
}
node {
  name: "save/RestoreV2_65/shape_and_slices"
  op: "Const"
  attr {
    key: "_output_shapes"
    value {
      list {
        shape {
          dim {
            size: 1
          }
        }
      }
    }
  }
  attr {
    key: "dtype"
    value {
      type: DT_STRING
    }
  }
  attr {
    key: "value"
    value {
      tensor {
        dtype: DT_STRING
        tensor_shape {
          dim {
            size: 1
          }
        }
        string_val: ""
      }
    }
  }
}
node {
  name: "save/RestoreV2_65"
  op: "RestoreV2"
  input: "save/Const"
  input: "save/RestoreV2_65/tensor_names"
  input: "save/RestoreV2_65/shape_and_slices"
  attr {
    key: "_output_shapes"
    value {
      list {
        shape {
          unknown_rank: true
        }
      }
    }
  }
  attr {
    key: "dtypes"
    value {
      list {
        type: DT_FLOAT
      }
    }
  }
}
node {
  name: "save/Assign_65"
  op: "Assign"
  input: "model/att_seq2seq/decode/attention_decoder/decoder/attention_mix/weights"
  input: "save/RestoreV2_65"
  attr {
    key: "T"
    value {
      type: DT_FLOAT
    }
  }
  attr {
    key: "_class"
    value {
      list {
        s: "loc:@model/att_seq2seq/decode/attention_decoder/decoder/attention_mix/weights"
      }
    }
  }
  attr {
    key: "_output_shapes"
    value {
      list {
        shape {
          dim {
            size: 768
          }
          dim {
            size: 256
          }
        }
      }
    }
  }
  attr {
    key: "use_locking"
    value {
      b: true
    }
  }
  attr {
    key: "validate_shape"
    value {
      b: true
    }
  }
}
node {
  name: "save/RestoreV2_66/tensor_names"
  op: "Const"
  attr {
    key: "_output_shapes"
    value {
      list {
        shape {
          dim {
            size: 1
          }
        }
      }
    }
  }
  attr {
    key: "dtype"
    value {
      type: DT_STRING
    }
  }
  attr {
    key: "value"
    value {
      tensor {
        dtype: DT_STRING
        tensor_shape {
          dim {
            size: 1
          }
        }
        string_val: "…"
      }
    }
  }
}
node {
  name: "save/RestoreV2_66/shape_and_slices"
  op: "Const"
  attr {
    key: "_output_shapes"
    value {
      list {
        shape {
          dim {
            size: 1
          }
        }
      }
    }
  }
  attr {
    key: "dtype"
    value {
      type: DT_STRING
    }
  }
  attr {
    key: "value"
    value {
      tensor {
        dtype: DT_STRING
        tensor_shape {
          dim {
            size: 1
          }
        }
        string_val: ""
      }
    }
  }
}
node {
  name: "save/RestoreV2_66"
  op: "RestoreV2"
  input: "save/Const"
  input: "save/RestoreV2_66/tensor_names"
  input: "save/RestoreV2_66/shape_and_slices"
  attr {
    key: "_output_shapes"
    value {
      list {
        shape {
          unknown_rank: true
        }
      }
    }
  }
  attr {
    key: "dtypes"
    value {
      list {
        type: DT_FLOAT
      }
    }
  }
}
node {
  name: "save/Assign_66"
  op: "Assign"
  input: "model/att_seq2seq/decode/attention_decoder/decoder/extended_multi_rnn_cell/cell_0/gru_cell/candidate/bias"
  input: "save/RestoreV2_66"
  attr {
    key: "T"
    value {
      type: DT_FLOAT
    }
  }
  attr {
    key: "_class"
    value {
      list {
        s: "loc:@model/att_seq2seq/decode/attention_decoder/decoder/extended_multi_rnn_cell/cell_0/gru_cell/candidate/bias"
      }
    }
  }
  attr {
    key: "_output_shapes"
    value {
      list {
        shape {
          dim {
            size: 256
          }
        }
      }
    }
  }
  attr {
    key: "use_locking"
    value {
      b: true
    }
  }
  attr {
    key: "validate_shape"
    value {
      b: true
    }
  }
}
node {
  name: "save/RestoreV2_67/tensor_names"
  op: "Const"
  attr {
    key: "_output_shapes"
    value {
      list {
        shape {
          dim {
            size: 1
          }
        }
      }
    }
  }
  attr {
    key: "dtype"
    value {
      type: DT_STRING
    }
  }
  attr {
    key: "value"
    value {
      tensor {
        dtype: DT_STRING
        tensor_shape {
          dim {
            size: 1
          }
        }
        string_val: "…"
      }
    }
  }
}
node {
  name: "save/RestoreV2_67/shape_and_slices"
  op: "Const"
  attr {
    key: "_output_shapes"
    value {
      list {
        shape {
          dim {
            size: 1
          }
        }
      }
    }
  }
  attr {
    key: "dtype"
    value {
      type: DT_STRING
    }
  }
  attr {
    key: "value"
    value {
      tensor {
        dtype: DT_STRING
        tensor_shape {
          dim {
            size: 1
          }
        }
        string_val: ""
      }
    }
  }
}
node {
  name: "save/RestoreV2_67"
  op: "RestoreV2"
  input: "save/Const"
  input: "save/RestoreV2_67/tensor_names"
  input: "save/RestoreV2_67/shape_and_slices"
  attr {
    key: "_output_shapes"
    value {
      list {
        shape {
          unknown_rank: true
        }
      }
    }
  }
  attr {
    key: "dtypes"
    value {
      list {
        type: DT_FLOAT
      }
    }
  }
}
node {
  name: "save/Assign_67"
  op: "Assign"
  input: "model/att_seq2seq/decode/attention_decoder/decoder/extended_multi_rnn_cell/cell_0/gru_cell/candidate/kernel"
  input: "save/RestoreV2_67"
  attr {
    key: "T"
    value {
      type: DT_FLOAT
    }
  }
  attr {
    key: "_class"
    value {
      list {
        s: "loc:@model/att_seq2seq/decode/attention_decoder/decoder/extended_multi_rnn_cell/cell_0/gru_cell/candidate/kernel"
      }
    }
  }
  attr {
    key: "_output_shapes"
    value {
      list {
        shape {
          dim {
            size: 1024
          }
          dim {
            size: 256
          }
        }
      }
    }
  }
  attr {
    key: "use_locking"
    value {
      b: true
    }
  }
  attr {
    key: "validate_shape"
    value {
      b: true
    }
  }
}
node {
  name: "save/RestoreV2_68/tensor_names"
  op: "Const"
  attr {
    key: "_output_shapes"
    value {
      list {
        shape {
          dim {
            size: 1
          }
        }
      }
    }
  }
  attr {
    key: "dtype"
    value {
      type: DT_STRING
    }
  }
  attr {
    key: "value"
    value {
      tensor {
        dtype: DT_STRING
        tensor_shape {
          dim {
            size: 1
          }
        }
        string_val: "…"
      }
    }
  }
}
node {
  name: "save/RestoreV2_68/shape_and_slices"
  op: "Const"
  attr {
    key: "_output_shapes"
    value {
      list {
        shape {
          dim {
            size: 1
          }
        }
      }
    }
  }
  attr {
    key: "dtype"
    value {
      type: DT_STRING
    }
  }
  attr {
    key: "value"
    value {
      tensor {
        dtype: DT_STRING
        tensor_shape {
          dim {
            size: 1
          }
        }
        string_val: ""
      }
    }
  }
}
node {
  name: "save/RestoreV2_68"
  op: "RestoreV2"
  input: "save/Const"
  input: "save/RestoreV2_68/tensor_names"
  input: "save/RestoreV2_68/shape_and_slices"
  attr {
    key: "_output_shapes"
    value {
      list {
        shape {
          unknown_rank: true
        }
      }
    }
  }
  attr {
    key: "dtypes"
    value {
      list {
        type: DT_FLOAT
      }
    }
  }
}
node {
  name: "save/Assign_68"
  op: "Assign"
  input: "model/att_seq2seq/decode/attention_decoder/decoder/extended_multi_rnn_cell/cell_0/gru_cell/gates/bias"
  input: "save/RestoreV2_68"
  attr {
    key: "T"
    value {
      type: DT_FLOAT
    }
  }
  attr {
    key: "_class"
    value {
      list {
        s: "loc:@model/att_seq2seq/decode/attention_decoder/decoder/extended_multi_rnn_cell/cell_0/gru_cell/gates/bias"
      }
    }
  }
  attr {
    key: "_output_shapes"
    value {
      list {
        shape {
          dim {
            size: 512
          }
        }
      }
    }
  }
  attr {
    key: "use_locking"
    value {
      b: true
    }
  }
  attr {
    key: "validate_shape"
    value {
      b: true
    }
  }
}
node {
  name: "save/RestoreV2_69/tensor_names"
  op: "Const"
  attr {
    key: "_output_shapes"
    value {
      list {
        shape {
          dim {
            size: 1
          }
        }
      }
    }
  }
  attr {
    key: "dtype"
    value {
      type: DT_STRING
    }
  }
  attr {
    key: "value"
    value {
      tensor {
        dtype: DT_STRING
        tensor_shape {
          dim {
            size: 1
          }
        }
        string_val: "…"
      }
    }
  }
}
node {
  name: "save/RestoreV2_69/shape_and_slices"
  op: "Const"
  attr {
    key: "_output_shapes"
    value {
      list {
        shape {
          dim {
            size: 1
          }
        }
      }
    }
  }
  attr {
    key: "dtype"
    value {
      type: DT_STRING
    }
  }
  attr {
    key: "value"
    value {
      tensor {
        dtype: DT_STRING
        tensor_shape {
          dim {
            size: 1
          }
        }
        string_val: ""
      }
    }
  }
}
node {
  name: "save/RestoreV2_69"
  op: "RestoreV2"
  input: "save/Const"
  input: "save/RestoreV2_69/tensor_names"
  input: "save/RestoreV2_69/shape_and_slices"
  attr {
    key: "_output_shapes"
    value {
      list {
        shape {
          unknown_rank: true
        }
      }
    }
  }
  attr {
    key: "dtypes"
    value {
      list {
        type: DT_FLOAT
      }
    }
  }
}
node {
  name: "save/Assign_69"
  op: "Assign"
  input: "model/att_seq2seq/decode/attention_decoder/decoder/extended_multi_rnn_cell/cell_0/gru_cell/gates/kernel"
  input: "save/RestoreV2_69"
  attr {
    key: "T"
    value {
      type: DT_FLOAT
    }
  }
  attr {
    key: "_class"
    value {
      list {
        s: "loc:@model/att_seq2seq/decode/attention_decoder/decoder/extended_multi_rnn_cell/cell_0/gru_cell/gates/kernel"
      }
    }
  }
  attr {
    key: "_output_shapes"
    value {
      list {
        shape {
          dim {
            size: 1024
          }
          dim {
            size: 512
          }
        }
      }
    }
  }
  attr {
    key: "use_locking"
    value {
      b: true
    }
  }
  attr {
    key: "validate_shape"
    value {
      b: true
    }
  }
}
node {
  name: "save/RestoreV2_70/tensor_names"
  op: "Const"
  attr {
    key: "_output_shapes"
    value {
      list {
        shape {
          dim {
            size: 1
          }
        }
      }
    }
  }
  attr {
    key: "dtype"
    value {
      type: DT_STRING
    }
  }
  attr {
    key: "value"
    value {
      tensor {
        dtype: DT_STRING
        tensor_shape {
          dim {
            size: 1
          }
        }
        string_val: "…"
      }
    }
  }
}
node {
  name: "save/RestoreV2_70/shape_and_slices"
  op: "Const"
  attr {
    key: "_output_shapes"
    value {
      list {
        shape {
          dim {
            size: 1
          }
        }
      }
    }
  }
  attr {
    key: "dtype"
    value {
      type: DT_STRING
    }
  }
  attr {
    key: "value"
    value {
      tensor {
        dtype: DT_STRING
        tensor_shape {
          dim {
            size: 1
          }
        }
        string_val: ""
      }
    }
  }
}
node {
  name: "save/RestoreV2_70"
  op: "RestoreV2"
  input: "save/Const"
  input: "save/RestoreV2_70/tensor_names"
  input: "save/RestoreV2_70/shape_and_slices"
  attr {
    key: "_output_shapes"
    value {
      list {
        shape {
          unknown_rank: true
        }
      }
    }
  }
  attr {
    key: "dtypes"
    value {
      list {
        type: DT_FLOAT
      }
    }
  }
}
node {
  name: "save/Assign_70"
  op: "Assign"
  input: "model/att_seq2seq/decode/attention_decoder/decoder/extended_multi_rnn_cell/cell_1/gru_cell/candidate/bias"
  input: "save/RestoreV2_70"
  attr {
    key: "T"
    value {
      type: DT_FLOAT
    }
  }
  attr {
    key: "_class"
    value {
      list {
        s: "loc:@model/att_seq2seq/decode/attention_decoder/decoder/extended_multi_rnn_cell/cell_1/gru_cell/candidate/bias"
      }
    }
  }
  attr {
    key: "_output_shapes"
    value {
      list {
        shape {
          dim {
            size: 256
          }
        }
      }
    }
  }
  attr {
    key: "use_locking"
    value {
      b: true
    }
  }
  attr {
    key: "validate_shape"
    value {
      b: true
    }
  }
}
node {
  name: "save/RestoreV2_71/tensor_names"
  op: "Const"
  attr {
    key: "_output_shapes"
    value {
      list {
        shape {
          dim {
            size: 1
          }
        }
      }
    }
  }
  attr {
    key: "dtype"
    value {
      type: DT_STRING
    }
  }
  attr {
    key: "value"
    value {
      tensor {
        dtype: DT_STRING
        tensor_shape {
          dim {
            size: 1
          }
        }
        string_val: "…"
      }
    }
  }
}
node {
  name: "save/RestoreV2_71/shape_and_slices"
  op: "Const"
  attr {
    key: "_output_shapes"
    value {
      list {
        shape {
          dim {
            size: 1
          }
        }
      }
    }
  }
  attr {
    key: "dtype"
    value {
      type: DT_STRING
    }
  }
  attr {
    key: "value"
    value {
      tensor {
        dtype: DT_STRING
        tensor_shape {
          dim {
            size: 1
          }
        }
        string_val: ""
      }
    }
  }
}
node {
  name: "save/RestoreV2_71"
  op: "RestoreV2"
  input: "save/Const"
  input: "save/RestoreV2_71/tensor_names"
  input: "save/RestoreV2_71/shape_and_slices"
  attr {
    key: "_output_shapes"
    value {
      list {
        shape {
          unknown_rank: true
        }
      }
    }
  }
  attr {
    key: "dtypes"
    value {
      list {
        type: DT_FLOAT
      }
    }
  }
}
node {
  name: "save/Assign_71"
  op: "Assign"
  input: "model/att_seq2seq/decode/attention_decoder/decoder/extended_multi_rnn_cell/cell_1/gru_cell/candidate/kernel"
  input: "save/RestoreV2_71"
  attr {
    key: "T"
    value {
      type: DT_FLOAT
    }
  }
  attr {
    key: "_class"
    value {
      list {
        s: "loc:@model/att_seq2seq/decode/attention_decoder/decoder/extended_multi_rnn_cell/cell_1/gru_cell/candidate/kernel"
      }
    }
  }
  attr {
    key: "_output_shapes"
    value {
      list {
        shape {
          dim {
            size: 512
          }
          dim {
            size: 256
          }
        }
      }
    }
  }
  attr {
    key: "use_locking"
    value {
      b: true
    }
  }
  attr {
    key: "validate_shape"
    value {
      b: true
    }
  }
}
node {
  name: "save/RestoreV2_72/tensor_names"
  op: "Const"
  attr {
    key: "_output_shapes"
    value {
      list {
        shape {
          dim {
            size: 1
          }
        }
      }
    }
  }
  attr {
    key: "dtype"
    value {
      type: DT_STRING
    }
  }
  attr {
    key: "value"
    value {
      tensor {
        dtype: DT_STRING
        tensor_shape {
          dim {
            size: 1
          }
        }
        string_val: "…"
      }
    }
  }
}
node {
  name: "save/RestoreV2_72/shape_and_slices"
  op: "Const"
  attr {
    key: "_output_shapes"
    value {
      list {
        shape {
          dim {
            size: 1
          }
        }
      }
    }
  }
  attr {
    key: "dtype"
    value {
      type: DT_STRING
    }
  }
  attr {
    key: "value"
    value {
      tensor {
        dtype: DT_STRING
        tensor_shape {
          dim {
            size: 1
          }
        }
        string_val: ""
      }
    }
  }
}
node {
  name: "save/RestoreV2_72"
  op: "RestoreV2"
  input: "save/Const"
  input: "save/RestoreV2_72/tensor_names"
  input: "save/RestoreV2_72/shape_and_slices"
  attr {
    key: "_output_shapes"
    value {
      list {
        shape {
          unknown_rank: true
        }
      }
    }
  }
  attr {
    key: "dtypes"
    value {
      list {
        type: DT_FLOAT
      }
    }
  }
}
node {
  name: "save/Assign_72"
  op: "Assign"
  input: "model/att_seq2seq/decode/attention_decoder/decoder/extended_multi_rnn_cell/cell_1/gru_cell/gates/bias"
  input: "save/RestoreV2_72"
  attr {
    key: "T"
    value {
      type: DT_FLOAT
    }
  }
  attr {
    key: "_class"
    value {
      list {
        s: "loc:@model/att_seq2seq/decode/attention_decoder/decoder/extended_multi_rnn_cell/cell_1/gru_cell/gates/bias"
      }
    }
  }
  attr {
    key: "_output_shapes"
    value {
      list {
        shape {
          dim {
            size: 512
          }
        }
      }
    }
  }
  attr {
    key: "use_locking"
    value {
      b: true
    }
  }
  attr {
    key: "validate_shape"
    value {
      b: true
    }
  }
}
node {
  name: "save/RestoreV2_73/tensor_names"
  op: "Const"
  attr {
    key: "_output_shapes"
    value {
      list {
        shape {
          dim {
            size: 1
          }
        }
      }
    }
  }
  attr {
    key: "dtype"
    value {
      type: DT_STRING
    }
  }
  attr {
    key: "value"
    value {
      tensor {
        dtype: DT_STRING
        tensor_shape {
          dim {
            size: 1
          }
        }
        string_val: "…"
      }
    }
  }
}
node {
  name: "save/RestoreV2_73/shape_and_slices"
  op: "Const"
  attr {
    key: "_output_shapes"
    value {
      list {
        shape {
          dim {
            size: 1
          }
        }
      }
    }
  }
  attr {
    key: "dtype"
    value {
      type: DT_STRING
    }
  }
  attr {
    key: "value"
    value {
      tensor {
        dtype: DT_STRING
        tensor_shape {
          dim {
            size: 1
          }
        }
        string_val: ""
      }
    }
  }
}
node {
  name: "save/RestoreV2_73"
  op: "RestoreV2"
  input: "save/Const"
  input: "save/RestoreV2_73/tensor_names"
  input: "save/RestoreV2_73/shape_and_slices"
  attr {
    key: "_output_shapes"
    value {
      list {
        shape {
          unknown_rank: true
        }
      }
    }
  }
  attr {
    key: "dtypes"
    value {
      list {
        type: DT_FLOAT
      }
    }
  }
}
node {
  name: "save/Assign_73"
  op: "Assign"
  input: "model/att_seq2seq/decode/attention_decoder/decoder/extended_multi_rnn_cell/cell_1/gru_cell/gates/kernel"
  input: "save/RestoreV2_73"
  attr {
    key: "T"
    value {
      type: DT_FLOAT
    }
  }
  attr {
    key: "_class"
    value {
      list {
        s: "loc:@model/att_seq2seq/decode/attention_decoder/decoder/extended_multi_rnn_cell/cell_1/gru_cell/gates/kernel"
      }
    }
  }
  attr {
    key: "_output_shapes"
    value {
      list {
        shape {
          dim {
            size: 512
          }
          dim {
            size: 512
          }
        }
      }
    }
  }
  attr {
    key: "use_locking"
    value {
      b: true
    }
  }
  attr {
    key: "validate_shape"
    value {
      b: true
    }
  }
}
node {
  name: "save/RestoreV2_74/tensor_names"
  op: "Const"
  attr {
    key: "_output_shapes"
    value {
      list {
        shape {
          dim {
            size: 1
          }
        }
      }
    }
  }
  attr {
    key: "dtype"
    value {
      type: DT_STRING
    }
  }
  attr {
    key: "value"
    value {
      tensor {
        dtype: DT_STRING
        tensor_shape {
          dim {
            size: 1
          }
        }
        string_val: "model/att_seq2seq/decode/attention_decoder/decoder/logits/biases"
      }
    }
  }
}
node {
  name: "save/RestoreV2_74/shape_and_slices"
  op: "Const"
  attr {
    key: "_output_shapes"
    value {
      list {
        shape {
          dim {
            size: 1
          }
        }
      }
    }
  }
  attr {
    key: "dtype"
    value {
      type: DT_STRING
    }
  }
  attr {
    key: "value"
    value {
      tensor {
        dtype: DT_STRING
        tensor_shape {
          dim {
            size: 1
          }
        }
        string_val: ""
      }
    }
  }
}
node {
  name: "save/RestoreV2_74"
  op: "RestoreV2"
  input: "save/Const"
  input: "save/RestoreV2_74/tensor_names"
  input: "save/RestoreV2_74/shape_and_slices"
  attr {
    key: "_output_shapes"
    value {
      list {
        shape {
          unknown_rank: true
        }
      }
    }
  }
  attr {
    key: "dtypes"
    value {
      list {
        type: DT_FLOAT
      }
    }
  }
}
node {
  name: "save/Assign_74"
  op: "Assign"
  input: "model/att_seq2seq/decode/attention_decoder/decoder/logits/biases"
  input: "save/RestoreV2_74"
  attr {
    key: "T"
    value {
      type: DT_FLOAT
    }
  }
  attr {
    key: "_class"
    value {
      list {
        s: "loc:@model/att_seq2seq/decode/attention_decoder/decoder/logits/biases"
      }
    }
  }
  attr {
    key: "_output_shapes"
    value {
      list {
        shape {
          dim {
            size: 428
          }
        }
      }
    }
  }
  attr {
    key: "use_locking"
    value {
      b: true
    }
  }
  attr {
    key: "validate_shape"
    value {
      b: true
    }
  }
}
node {
  name: "save/RestoreV2_75/tensor_names"
  op: "Const"
  attr {
    key: "_output_shapes"
    value {
      list {
        shape {
          dim {
            size: 1
          }
        }
      }
    }
  }
  attr {
    key: "dtype"
    value {
      type: DT_STRING
    }
  }
  attr {
    key: "value"
    value {
      tensor {
        dtype: DT_STRING
        tensor_shape {
          dim {
            size: 1
          }
        }
        string_val: "model/att_seq2seq/decode/attention_decoder/decoder/logits/weights"
      }
    }
  }
}
node {
  name: "save/RestoreV2_75/shape_and_slices"
  op: "Const"
  attr {
    key: "_output_shapes"
    value {
      list {
        shape {
          dim {
            size: 1
          }
        }
      }
    }
  }
  attr {
    key: "dtype"
    value {
      type: DT_STRING
    }
  }
  attr {
    key: "value"
    value {
      tensor {
        dtype: DT_STRING
        tensor_shape {
          dim {
            size: 1
          }
        }
        string_val: ""
      }
    }
  }
}
node {
  name: "save/RestoreV2_75"
  op: "RestoreV2"
  input: "save/Const"
  input: "save/RestoreV2_75/tensor_names"
  input: "save/RestoreV2_75/shape_and_slices"
  attr {
    key: "_output_shapes"
    value {
      list {
        shape {
          unknown_rank: true
        }
      }
    }
  }
  attr {
    key: "dtypes"
    value {
      list {
        type: DT_FLOAT
      }
    }
  }
}
node {
  name: "save/Assign_75"
  op: "Assign"
  input: "model/att_seq2seq/decode/attention_decoder/decoder/logits/weights"
  input: "save/RestoreV2_75"
  attr {
    key: "T"
    value {
      type: DT_FLOAT
    }
  }
  attr {
    key: "_class"
    value {
      list {
        s: "loc:@model/att_seq2seq/decode/attention_decoder/decoder/logits/weights"
      }
    }
  }
  attr {
    key: "_output_shapes"
    value {
      list {
        shape {
          dim {
            size: 256
          }
          dim {
            size: 428
          }
        }
      }
    }
  }
  attr {
    key: "use_locking"
    value {
      b: true
    }
  }
  attr {
    key: "validate_shape"
    value {
      b: true
    }
  }
}
node {
  name: "save/RestoreV2_76/tensor_names"
  op: "Const"
  attr {
    key: "_output_shapes"
    value {
      list {
        shape {
          dim {
            size: 1
          }
        }
      }
    }
  }
  attr {
    key: "dtype"
    value {
      type: DT_STRING
    }
  }
  attr {
    key: "value"
    value {
      tensor {
        dtype: DT_STRING
        tensor_shape {
          dim {
            size: 1
          }
        }
        string_val: "model/att_seq2seq/decode/target_embedding/W"
      }
    }
  }
}
node {
  name: "save/RestoreV2_76/shape_and_slices"
  op: "Const"
  attr {
    key: "_output_shapes"
    value {
      list {
        shape {
          dim {
            size: 1
          }
        }
      }
    }
  }
  attr {
    key: "dtype"
    value {
      type: DT_STRING
    }
  }
  attr {
    key: "value"
    value {
      tensor {
        dtype: DT_STRING
        tensor_shape {
          dim {
            size: 1
          }
        }
        string_val: ""
      }
    }
  }
}
node {
  name: "save/RestoreV2_76"
  op: "RestoreV2"
  input: "save/Const"
  input: "save/RestoreV2_76/tensor_names"
  input: "save/RestoreV2_76/shape_and_slices"
  attr {
    key: "_output_shapes"
    value {
      list {
        shape {
          unknown_rank: true
        }
      }
    }
  }
  attr {
    key: "dtypes"
    value {
      list {
        type: DT_FLOAT
      }
    }
  }
}
node {
  name: "save/Assign_76"
  op: "Assign"
  input: "model/att_seq2seq/decode/target_embedding/W"
  input: "save/RestoreV2_76"
  attr {
    key: "T"
    value {
      type: DT_FLOAT
    }
  }
  attr {
    key: "_class"
    value {
      list {
        s: "loc:@model/att_seq2seq/decode/target_embedding/W"
      }
    }
  }
  attr {
    key: "_output_shapes"
    value {
      list {
        shape {
          dim {
            size: 428
          }
          dim {
            size: 256
          }
        }
      }
    }
  }
  attr {
    key: "use_locking"
    value {
      b: true
    }
  }
  attr {
    key: "validate_shape"
    value {
      b: true
    }
  }
}
node {
  name: "save/RestoreV2_77/tensor_names"
  op: "Const"
  attr {
    key: "_output_shapes"
    value {
      list {
        shape {
          dim {
            size: 1
          }
        }
      }
    }
  }
  attr {
    key: "dtype"
    value {
      type: DT_STRING
    }
  }
  attr {
    key: "value"
    value {
      tensor {
        dtype: DT_STRING
        tensor_shape {
          dim {
            size: 1
          }
        }
        string_val: "model/att_seq2seq/encode/bidi_rnn_encoder/bidirectional_rnn/bw/gru_cell/candidate/bias"
      }
    }
  }
}
node {
  name: "save/RestoreV2_77/shape_and_slices"
  op: "Const"
  attr {
    key: "_output_shapes"
    value {
      list {
        shape {
          dim {
            size: 1
          }
        }
      }
    }
  }
  attr {
    key: "dtype"
    value {
      type: DT_STRING
    }
  }
  attr {
    key: "value"
    value {
      tensor {
        dtype: DT_STRING
        tensor_shape {
          dim {
            size: 1
          }
        }
        string_val: ""
      }
    }
  }
}
node {
  name: "save/RestoreV2_77"
  op: "RestoreV2"
  input: "save/Const"
  input: "save/RestoreV2_77/tensor_names"
  input: "save/RestoreV2_77/shape_and_slices"
  attr {
    key: "_output_shapes"
    value {
      list {
        shape {
          unknown_rank: true
        }
      }
    }
  }
  attr {
    key: "dtypes"
    value {
      list {
        type: DT_FLOAT
      }
    }
  }
}
node {
  name: "save/Assign_77"
  op: "Assign"
  input: "model/att_seq2seq/encode/bidi_rnn_encoder/bidirectional_rnn/bw/gru_cell/candidate/bias"
  input: "save/RestoreV2_77"
  attr {
    key: "T"
    value {
      type: DT_FLOAT
    }
  }
  attr {
    key: "_class"
    value {
      list {
        s: "loc:@model/att_seq2seq/encode/bidi_rnn_encoder/bidirectional_rnn/bw/gru_cell/candidate/bias"
      }
    }
  }
  attr {
    key: "_output_shapes"
    value {
      list {
        shape {
          dim {
            size: 256
          }
        }
      }
    }
  }
  attr {
    key: "use_locking"
    value {
      b: true
    }
  }
  attr {
    key: "validate_shape"
    value {
      b: true
    }
  }
}
node {
  name: "save/RestoreV2_78/tensor_names"
  op: "Const"
  attr {
    key: "_output_shapes"
    value {
      list {
        shape {
          dim {
            size: 1
          }
        }
      }
    }
  }
  attr {
    key: "dtype"
    value {
      type: DT_STRING
    }
  }
  attr {
    key: "value"
    value {
      tensor {
        dtype: DT_STRING
        tensor_shape {
          dim {
            size: 1
          }
        }
        string_val: "model/att_seq2seq/encode/bidi_rnn_encoder/bidirectional_rnn/bw/gru_cell/candidate/kernel"
      }
    }
  }
}
node {
  name: "save/RestoreV2_78/shape_and_slices"
  op: "Const"
  attr {
    key: "_output_shapes"
    value {
      list {
        shape {
          dim {
            size: 1
          }
        }
      }
    }
  }
  attr {
    key: "dtype"
    value {
      type: DT_STRING
    }
  }
  attr {
    key: "value"
    value {
      tensor {
        dtype: DT_STRING
        tensor_shape {
          dim {
            size: 1
          }
        }
        string_val: ""
      }
    }
  }
}
node {
  name: "save/RestoreV2_78"
  op: "RestoreV2"
  input: "save/Const"
  input: "save/RestoreV2_78/tensor_names"
  input: "save/RestoreV2_78/shape_and_slices"
  attr {
    key: "_output_shapes"
    value {
      list {
        shape {
          unknown_rank: true
        }
      }
    }
  }
  attr {
    key: "dtypes"
    value {
      list {
        type: DT_FLOAT
      }
    }
  }
}
node {
  name: "save/Assign_78"
  op: "Assign"
  input: "model/att_seq2seq/encode/bidi_rnn_encoder/bidirectional_rnn/bw/gru_cell/candidate/kernel"
  input: "save/RestoreV2_78"
  attr {
    key: "T"
    value {
      type: DT_FLOAT
    }
  }
  attr {
    key: "_class"
    value {
      list {
        s: "loc:@model/att_seq2seq/encode/bidi_rnn_encoder/bidirectional_rnn/bw/gru_cell/candidate/kernel"
      }
    }
  }
  attr {
    key: "_output_shapes"
    value {
      list {
        shape {
          dim {
            size: 512
          }
          dim {
            size: 256
          }
        }
      }
    }
  }
  attr {
    key: "use_locking"
    value {
      b: true
    }
  }
  attr {
    key: "validate_shape"
    value {
      b: true
    }
  }
}
node {
  name: "save/RestoreV2_79/tensor_names"
  op: "Const"
  attr {
    key: "_output_shapes"
    value {
      list {
        shape {
          dim {
            size: 1
          }
        }
      }
    }
  }
  attr {
    key: "dtype"
    value {
      type: DT_STRING
    }
  }
  attr {
    key: "value"
    value {
      tensor {
        dtype: DT_STRING
        tensor_shape {
          dim {
            size: 1
          }
        }
        string_val: "model/att_seq2seq/encode/bidi_rnn_encoder/bidirectional_rnn/bw/gru_cell/gates/bias"
      }
    }
  }
}
node {
  name: "save/RestoreV2_79/shape_and_slices"
  op: "Const"
  attr {
    key: "_output_shapes"
    value {
      list {
        shape {
          dim {
            size: 1
          }
        }
      }
    }
  }
  attr {
    key: "dtype"
    value {
      type: DT_STRING
    }
  }
  attr {
    key: "value"
    value {
      tensor {
        dtype: DT_STRING
        tensor_shape {
          dim {
            size: 1
          }
        }
        string_val: ""
      }
    }
  }
}
node {
  name: "save/RestoreV2_79"
  op: "RestoreV2"
  input: "save/Const"
  input: "save/RestoreV2_79/tensor_names"
  input: "save/RestoreV2_79/shape_and_slices"
  attr {
    key: "_output_shapes"
    value {
      list {
        shape {
          unknown_rank: true
        }
      }
    }
  }
  attr {
    key: "dtypes"
    value {
      list {
        type: DT_FLOAT
      }
    }
  }
}
node {
  name: "save/Assign_79"
  op: "Assign"
  input: "model/att_seq2seq/encode/bidi_rnn_encoder/bidirectional_rnn/bw/gru_cell/gates/bias"
  input: "save/RestoreV2_79"
  attr {
    key: "T"
    value {
      type: DT_FLOAT
    }
  }
  attr {
    key: "_class"
    value {
      list {
        s: "loc:@model/att_seq2seq/encode/bidi_rnn_encoder/bidirectional_rnn/bw/gru_cell/gates/bias"
      }
    }
  }
  attr {
    key: "_output_shapes"
    value {
      list {
        shape {
          dim {
            size: 512
          }
        }
      }
    }
  }
  attr {
    key: "use_locking"
    value {
      b: true
    }
  }
  attr {
    key: "validate_shape"
    value {
      b: true
    }
  }
}
node {
  name: "save/RestoreV2_80/tensor_names"
  op: "Const"
  attr {
    key: "_output_shapes"
    value {
      list {
        shape {
          dim {
            size: 1
          }
        }
      }
    }
  }
  attr {
    key: "dtype"
    value {
      type: DT_STRING
    }
  }
  attr {
    key: "value"
    value {
      tensor {
        dtype: DT_STRING
        tensor_shape {
          dim {
            size: 1
          }
        }
        string_val: "model/att_seq2seq/encode/bidi_rnn_encoder/bidirectional_rnn/bw/gru_cell/gates/kernel"
      }
    }
  }
}
node {
  name: "save/RestoreV2_80/shape_and_slices"
  op: "Const"
  attr {
    key: "_output_shapes"
    value {
      list {
        shape {
          dim {
            size: 1
          }
        }
      }
    }
  }
  attr {
    key: "dtype"
    value {
      type: DT_STRING
    }
  }
  attr {
    key: "value"
    value {
      tensor {
        dtype: DT_STRING
        tensor_shape {
          dim {
            size: 1
          }
        }
        string_val: ""
      }
    }
  }
}
node {
  name: "save/RestoreV2_80"
  op: "RestoreV2"
  input: "save/Const"
  input: "save/RestoreV2_80/tensor_names"
  input: "save/RestoreV2_80/shape_and_slices"
  attr {
    key: "_output_shapes"
    value {
      list {
        shape {
          unknown_rank: true
        }
      }
    }
  }
  attr {
    key: "dtypes"
    value {
      list {
        type: DT_FLOAT
      }
    }
  }
}
node {
  name: "save/Assign_80"
  op: "Assign"
  input: "model/att_seq2seq/encode/bidi_rnn_encoder/bidirectional_rnn/bw/gru_cell/gates/kernel"
  input: "save/RestoreV2_80"
  attr {
    key: "T"
    value {
      type: DT_FLOAT
    }
  }
  attr {
    key: "_class"
    value {
      list {
        s: "loc:@model/att_seq2seq/encode/bidi_rnn_encoder/bidirectional_rnn/bw/gru_cell/gates/kernel"
      }
    }
  }
  attr {
    key: "_output_shapes"
    value {
      list {
        shape {
          dim {
            size: 512
          }
          dim {
            size: 512
          }
        }
      }
    }
  }
  attr {
    key: "use_locking"
    value {
      b: true
    }
  }
  attr {
    key: "validate_shape"
    value {
      b: true
    }
  }
}
node {
  name: "save/RestoreV2_81/tensor_names"
  op: "Const"
  attr {
    key: "_output_shapes"
    value {
      list {
        shape {
          dim {
            size: 1
          }
        }
      }
    }
  }
  attr {
    key: "dtype"
    value {
      type: DT_STRING
    }
  }
  attr {
    key: "value"
    value {
      tensor {
        dtype: DT_STRING
        tensor_shape {
          dim {
            size: 1
          }
        }
        string_val: "model/att_seq2seq/encode/bidi_rnn_encoder/bidirectional_rnn/fw/gru_cell/candidate/bias"
      }
    }
  }
}
node {
  name: "save/RestoreV2_81/shape_and_slices"
  op: "Const"
  attr {
    key: "_output_shapes"
    value {
      list {
        shape {
          dim {
            size: 1
          }
        }
      }
    }
  }
  attr {
    key: "dtype"
    value {
      type: DT_STRING
    }
  }
  attr {
    key: "value"
    value {
      tensor {
        dtype: DT_STRING
        tensor_shape {
          dim {
            size: 1
          }
        }
        string_val: ""
      }
    }
  }
}
node {
  name: "save/RestoreV2_81"
  op: "RestoreV2"
  input: "save/Const"
  input: "save/RestoreV2_81/tensor_names"
  input: "save/RestoreV2_81/shape_and_slices"
  attr {
    key: "_output_shapes"
    value {
      list {
        shape {
          unknown_rank: true
        }
      }
    }
  }
  attr {
    key: "dtypes"
    value {
      list {
        type: DT_FLOAT
      }
    }
  }
}
node {
  name: "save/Assign_81"
  op: "Assign"
  input: "model/att_seq2seq/encode/bidi_rnn_encoder/bidirectional_rnn/fw/gru_cell/candidate/bias"
  input: "save/RestoreV2_81"
  attr {
    key: "T"
    value {
      type: DT_FLOAT
    }
  }
  attr {
    key: "_class"
    value {
      list {
        s: "loc:@model/att_seq2seq/encode/bidi_rnn_encoder/bidirectional_rnn/fw/gru_cell/candidate/bias"
      }
    }
  }
  attr {
    key: "_output_shapes"
    value {
      list {
        shape {
          dim {
            size: 256
          }
        }
      }
    }
  }
  attr {
    key: "use_locking"
    value {
      b: true
    }
  }
  attr {
    key: "validate_shape"
    value {
      b: true
    }
  }
}
node {
  name: "save/RestoreV2_82/tensor_names"
  op: "Const"
  attr {
    key: "_output_shapes"
    value {
      list {
        shape {
          dim {
            size: 1
          }
        }
      }
    }
  }
  attr {
    key: "dtype"
    value {
      type: DT_STRING
    }
  }
  attr {
    key: "value"
    value {
      tensor {
        dtype: DT_STRING
        tensor_shape {
          dim {
            size: 1
          }
        }
        string_val: "model/att_seq2seq/encode/bidi_rnn_encoder/bidirectional_rnn/fw/gru_cell/candidate/kernel"
      }
    }
  }
}
node {
  name: "save/RestoreV2_82/shape_and_slices"
  op: "Const"
  attr {
    key: "_output_shapes"
    value {
      list {
        shape {
          dim {
            size: 1
          }
        }
      }
    }
  }
  attr {
    key: "dtype"
    value {
      type: DT_STRING
    }
  }
  attr {
    key: "value"
    value {
      tensor {
        dtype: DT_STRING
        tensor_shape {
          dim {
            size: 1
          }
        }
        string_val: ""
      }
    }
  }
}
node {
  name: "save/RestoreV2_82"
  op: "RestoreV2"
  input: "save/Const"
  input: "save/RestoreV2_82/tensor_names"
  input: "save/RestoreV2_82/shape_and_slices"
  attr {
    key: "_output_shapes"
    value {
      list {
        shape {
          unknown_rank: true
        }
      }
    }
  }
  attr {
    key: "dtypes"
    value {
      list {
        type: DT_FLOAT
      }
    }
  }
}
node {
  name: "save/Assign_82"
  op: "Assign"
  input: "model/att_seq2seq/encode/bidi_rnn_encoder/bidirectional_rnn/fw/gru_cell/candidate/kernel"
  input: "save/RestoreV2_82"
  attr {
    key: "T"
    value {
      type: DT_FLOAT
    }
  }
  attr {
    key: "_class"
    value {
      list {
        s: "loc:@model/att_seq2seq/encode/bidi_rnn_encoder/bidirectional_rnn/fw/gru_cell/candidate/kernel"
      }
    }
  }
  attr {
    key: "_output_shapes"
    value {
      list {
        shape {
          dim {
            size: 512
          }
          dim {
            size: 256
          }
        }
      }
    }
  }
  attr {
    key: "use_locking"
    value {
      b: true
    }
  }
  attr {
    key: "validate_shape"
    value {
      b: true
    }
  }
}
node {
  name: "save/RestoreV2_83/tensor_names"
  op: "Const"
  attr {
    key: "_output_shapes"
    value {
      list {
        shape {
          dim {
            size: 1
          }
        }
      }
    }
  }
  attr {
    key: "dtype"
    value {
      type: DT_STRING
    }
  }
  attr {
    key: "value"
    value {
      tensor {
        dtype: DT_STRING
        tensor_shape {
          dim {
            size: 1
          }
        }
        string_val: "model/att_seq2seq/encode/bidi_rnn_encoder/bidirectional_rnn/fw/gru_cell/gates/bias"
      }
    }
  }
}
node {
  name: "save/RestoreV2_83/shape_and_slices"
  op: "Const"
  attr {
    key: "_output_shapes"
    value {
      list {
        shape {
          dim {
            size: 1
          }
        }
      }
    }
  }
  attr {
    key: "dtype"
    value {
      type: DT_STRING
    }
  }
  attr {
    key: "value"
    value {
      tensor {
        dtype: DT_STRING
        tensor_shape {
          dim {
            size: 1
          }
        }
        string_val: ""
      }
    }
  }
}
node {
  name: "save/RestoreV2_83"
  op: "RestoreV2"
  input: "save/Const"
  input: "save/RestoreV2_83/tensor_names"
  input: "save/RestoreV2_83/shape_and_slices"
  attr {
    key: "_output_shapes"
    value {
      list {
        shape {
          unknown_rank: true
        }
      }
    }
  }
  attr {
    key: "dtypes"
    value {
      list {
        type: DT_FLOAT
      }
    }
  }
}
node {
  name: "save/Assign_83"
  op: "Assign"
  input: "model/att_seq2seq/encode/bidi_rnn_encoder/bidirectional_rnn/fw/gru_cell/gates/bias"
  input: "save/RestoreV2_83"
  attr {
    key: "T"
    value {
      type: DT_FLOAT
    }
  }
  attr {
    key: "_class"
    value {
      list {
        s: "loc:@model/att_seq2seq/encode/bidi_rnn_encoder/bidirectional_rnn/fw/gru_cell/gates/bias"
      }
    }
  }
  attr {
    key: "_output_shapes"
    value {
      list {
        shape {
          dim {
            size: 512
          }
        }
      }
    }
  }
  attr {
    key: "use_locking"
    value {
      b: true
    }
  }
  attr {
    key: "validate_shape"
    value {
      b: true
    }
  }
}
node {
  name: "save/RestoreV2_84/tensor_names"
  op: "Const"
  attr {
    key: "_output_shapes"
    value {
      list {
        shape {
          dim {
            size: 1
          }
        }
      }
    }
  }
  attr {
    key: "dtype"
    value {
      type: DT_STRING
    }
  }
  attr {
    key: "value"
    value {
      tensor {
        dtype: DT_STRING
        tensor_shape {
          dim {
            size: 1
          }
        }
        string_val: "model/att_seq2seq/encode/bidi_rnn_encoder/bidirectional_rnn/fw/gru_cell/gates/kernel"
      }
    }
  }
}
node {
  name: "save/RestoreV2_84/shape_and_slices"
  op: "Const"
  attr {
    key: "_output_shapes"
    value {
      list {
        shape {
          dim {
            size: 1
          }
        }
      }
    }
  }
  attr {
    key: "dtype"
    value {
      type: DT_STRING
    }
  }
  attr {
    key: "value"
    value {
      tensor {
        dtype: DT_STRING
        tensor_shape {
          dim {
            size: 1
          }
        }
        string_val: ""
      }
    }
  }
}
node {
  name: "save/RestoreV2_84"
  op: "RestoreV2"
  input: "save/Const"
  input: "save/RestoreV2_84/tensor_names"
  input: "save/RestoreV2_84/shape_and_slices"
  attr {
    key: "_output_shapes"
    value {
      list {
        shape {
          unknown_rank: true
        }
      }
    }
  }
  attr {
    key: "dtypes"
    value {
      list {
        type: DT_FLOAT
      }
    }
  }
}
node {
  name: "save/Assign_84"
  op: "Assign"
  input: "model/att_seq2seq/encode/bidi_rnn_encoder/bidirectional_rnn/fw/gru_cell/gates/kernel"
  input: "save/RestoreV2_84"
  attr {
    key: "T"
    value {
      type: DT_FLOAT
    }
  }
  attr {
    key: "_class"
    value {
      list {
        s: "loc:@model/att_seq2seq/encode/bidi_rnn_encoder/bidirectional_rnn/fw/gru_cell/gates/kernel"
      }
    }
  }
  attr {
    key: "_output_shapes"
    value {
      list {
        shape {
          dim {
            size: 512
          }
          dim {
            size: 512
          }
        }
      }
    }
  }
  attr {
    key: "use_locking"
    value {
      b: true
    }
  }
  attr {
    key: "validate_shape"
    value {
      b: true
    }
  }
}
node {
  name: "save/RestoreV2_85/tensor_names"
  op: "Const"
  attr {
    key: "_output_shapes"
    value {
      list {
        shape {
          dim {
            size: 1
          }
        }
      }
    }
  }
  attr {
    key: "dtype"
    value {
      type: DT_STRING
    }
  }
  attr {
    key: "value"
    value {
      tensor {
        dtype: DT_STRING
        tensor_shape {
          dim {
            size: 1
          }
        }
        string_val: "model/att_seq2seq/encode/source_embedding/W"
      }
    }
  }
}
node {
  name: "save/RestoreV2_85/shape_and_slices"
  op: "Const"
  attr {
    key: "_output_shapes"
    value {
      list {
        shape {
          dim {
            size: 1
          }
        }
      }
    }
  }
  attr {
    key: "dtype"
    value {
      type: DT_STRING
    }
  }
  attr {
    key: "value"
    value {
      tensor {
        dtype: DT_STRING
        tensor_shape {
          dim {
            size: 1
          }
        }
        string_val: ""
      }
    }
  }
}
node {
  name: "save/RestoreV2_85"
  op: "RestoreV2"
  input: "save/Const"
  input: "save/RestoreV2_85/tensor_names"
  input: "save/RestoreV2_85/shape_and_slices"
  attr {
    key: "_output_shapes"
    value {
      list {
        shape {
          unknown_rank: true
        }
      }
    }
  }
  attr {
    key: "dtypes"
    value {
      list {
        type: DT_FLOAT
      }
    }
  }
}
node {
  name: "save/Assign_85"
  op: "Assign"
  input: "model/att_seq2seq/encode/source_embedding/W"
  input: "save/RestoreV2_85"
  attr {
    key: "T"
    value {
      type: DT_FLOAT
    }
  }
  attr {
    key: "_class"
    value {
      list {
        s: "loc:@model/att_seq2seq/encode/source_embedding/W"
      }
    }
  }
  attr {
    key: "_output_shapes"
    value {
      list {
        shape {
          dim {
            size: 433
          }
          dim {
            size: 256
          }
        }
      }
    }
  }
  attr {
    key: "use_locking"
    value {
      b: true
    }
  }
  attr {
    key: "validate_shape"
    value {
      b: true
    }
  }
}
node {
  name: "save/restore_shard"
  op: "NoOp"
  input: "^save/Assign"
  input: "^save/Assign_1"
  input: "^save/Assign_2"
  input: "^save/Assign_3"
  input: "^save/Assign_4"
  input: "^save/Assign_5"
  input: "^save/Assign_6"
  input: "^save/Assign_7"
  input: "^save/Assign_8"
  input: "^save/Assign_9"
  input: "^save/Assign_10"
  input: "^save/Assign_11"
  input: "^save/Assign_12"
  input: "^save/Assign_13"
  input: "^save/Assign_14"
  input: "^save/Assign_15"
  input: "^save/Assign_16"
  input: "^save/Assign_17"
  input: "^save/Assign_18"
  input: "^save/Assign_19"
  input: "^save/Assign_20"
  input: "^save/Assign_21"
  input: "^save/Assign_22"
  input: "^save/Assign_23"
  input: "^save/Assign_24"
  input: "^save/Assign_25"
  input: "^save/Assign_26"
  input: "^save/Assign_27"
  input: "^save/Assign_28"
  input: "^save/Assign_29"
  input: "^save/Assign_30"
  input: "^save/Assign_31"
  input: "^save/Assign_32"
  input: "^save/Assign_33"
  input: "^save/Assign_34"
  input: "^save/Assign_35"
  input: "^save/Assign_36"
  input: "^save/Assign_37"
  input: "^save/Assign_38"
  input: "^save/Assign_39"
  input: "^save/Assign_40"
  input: "^save/Assign_41"
  input: "^save/Assign_42"
  input: "^save/Assign_43"
  input: "^save/Assign_44"
  input: "^save/Assign_45"
  input: "^save/Assign_46"
  input: "^save/Assign_47"
  input: "^save/Assign_48"
  input: "^save/Assign_49"
  input: "^save/Assign_50"
  input: "^save/Assign_51"
  input: "^save/Assign_52"
  input: "^save/Assign_53"
  input: "^save/Assign_54"
  input: "^save/Assign_55"
  input: "^save/Assign_56"
  input: "^save/Assign_57"
  input: "^save/Assign_58"
  input: "^save/Assign_59"
  input: "^save/Assign_60"
  input: "^save/Assign_61"
  input: "^save/Assign_62"
  input: "^save/Assign_63"
  input: "^save/Assign_64"
  input: "^save/Assign_65"
  input: "^save/Assign_66"
  input: "^save/Assign_67"
  input: "^save/Assign_68"
  input: "^save/Assign_69"
  input: "^save/Assign_70"
  input: "^save/Assign_71"
  input: "^save/Assign_72"
  input: "^save/Assign_73"
  input: "^save/Assign_74"
  input: "^save/Assign_75"
  input: "^save/Assign_76"
  input: "^save/Assign_77"
  input: "^save/Assign_78"
  input: "^save/Assign_79"
  input: "^save/Assign_80"
  input: "^save/Assign_81"
  input: "^save/Assign_82"
  input: "^save/Assign_83"
  input: "^save/Assign_84"
  input: "^save/Assign_85"
}
node {
  name: "save/restore_all"
  op: "NoOp"
  input: "^save/restore_shard"
}
library {
  function {
    signature {
      name: "att_sum_bahdanau"
      input_arg {
        name: "v_att"
        type: DT_FLOAT
      }
      input_arg {
        name: "keys"
        type: DT_FLOAT
      }
      input_arg {
        name: "query"
        type: DT_FLOAT
      }
      output_arg {
        name: "Sum"
        type: DT_FLOAT
      }
      description: "Calculates a batch- and timweise dot product with a variable"
    }
    node_def {
      name: "ExpandDims/dim"
      op: "Const"
      attr {
        key: "dtype"
        value {
          type: DT_INT32
        }
      }
      attr {
        key: "value"
        value {
          tensor {
            dtype: DT_INT32
            tensor_shape {
            }
            int_val: 1
          }
        }
      }
    }
    node_def {
      name: "ExpandDims"
      op: "ExpandDims"
      input: "query"
      input: "ExpandDims/dim:output:0"
      attr {
        key: "T"
        value {
          type: DT_FLOAT
        }
      }
      attr {
        key: "Tdim"
        value {
          type: DT_INT32
        }
      }
    }
    node_def {
      name: "add"
      op: "Add"
      input: "keys"
      input: "ExpandDims:output:0"
      attr {
        key: "T"
        value {
          type: DT_FLOAT
        }
      }
    }
    node_def {
      name: "Tanh"
      op: "Tanh"
      input: "add:z:0"
      attr {
        key: "T"
        value {
          type: DT_FLOAT
        }
      }
    }
    node_def {
      name: "mul"
      op: "Mul"
      input: "v_att"
      input: "Tanh:y:0"
      attr {
        key: "T"
        value {
          type: DT_FLOAT
        }
      }
    }
    node_def {
      name: "Sum/reduction_indices"
      op: "Const"
      attr {
        key: "dtype"
        value {
          type: DT_INT32
        }
      }
      attr {
        key: "value"
        value {
          tensor {
            dtype: DT_INT32
            tensor_shape {
              dim {
                size: 1
              }
            }
            int_val: 2
          }
        }
      }
    }
    node_def {
      name: "Sum"
      op: "Sum"
      input: "mul:z:0"
      input: "Sum/reduction_indices:output:0"
      attr {
        key: "T"
        value {
          type: DT_FLOAT
        }
      }
      attr {
        key: "Tidx"
        value {
          type: DT_INT32
        }
      }
      attr {
        key: "keep_dims"
        value {
          b: false
        }
      }
    }
    ret {
      key: "Sum"
      value: "Sum:output:0"
    }
    attr {
      key: "_XlaCompile"
      value {
      }
    }
    attr {
      key: "_XlaScope"
      value {
      }
    }
    attr {
      key: "_XlaSeparateCompiledGradients"
      value {
      }
    }
    attr {
      key: "_noinline"
      value {
        b: true
      }
    }
  }
}
versions {
  producer: 24
  min_consumer: 12
}
